homework/Kirsten_Ziman_HW1/fully_connected_test.pt (torch_old, 3241 bytes, 3 tensors)

X f8 [48, 2]
0	0x3fe23fcc9e144de4	0.57028799891344
1	0xbfe1819b7fc260ba	-0.5470712180422403
2	0xbf746c098e5d6e07	-0.0049858449254673925
3	0x3feae5400e49550c	0.8404846457512192
4	0x3fe7d66b707a4431	0.7449242779567894
5	0x3fe78e944888609e	0.7361546913771411
6	0x3fd82fe9e22c2eaa	0.37792441451231673
7	0xbffcda7ceb95c9fe	-1.8033417894881718
8	0x3fe02d586c4d8624	0.5055353274621592
9	0x3fc191a80ff3fe08	0.13725758341750827
10	0xbfe841f0c718bb0e	-0.7580493820767928
11	0x3fdfcbb9384c0b68	0.49680929658659645
12	0xbfcbb443736f1280	-0.21643870483798722
13	0xbfe994215fd41da6	-0.7993323203708556
14	0xbfe51c72ebd3ece0	-0.6597227674496047
15	0xbffb3b3a2032c5f7	-1.7019597299334899
16	0xbfa17970c925c91e	-0.03412964301505127
17	0xbfd44bca498d7a8a	-0.31712586577297286
18	0x3fd92309ff67b269	0.3927636141004656
19	0xbfd7966acc1878cb	-0.36855573588571805
20	0xbfb7ba086cbfee5c	-0.09268238692305303
21	0x3ff8b31a67d5c855	1.5437263542230728
22	0xbfbe0e9363187bef	-0.11740990800215888
23	0xbff5503c4a8d0f24	-1.3320887481831472
24	0x3fffb8addfefab8b	1.9825876948841337
25	0x3ff444481e791195	1.2666703405712714
26	0xbff6da190ac8115d	-1.4282465382721832
27	0xbfd962bf7dc28c62	-0.3966521003841931
28	0xbff5a4ad163f2ef9	-1.3527041310325656
29	0xc002dec77ae5d372	-2.3587789155375782
30	0xbff7a73a5d1cdb2c	-1.4783271443572614
31	0xbfd097c41eca9bd6	-0.2592630673120174
32	0xbfde1b3c2d48fde4	-0.47041229650855443
33	0xbfe2206aa162c428	-0.5664570953432575
34	0xbffa68d3c58fa18c	-1.6505925862530573
35	0x3ff5c1c1df0a08df	1.3598040306538264
36	0x3ff316637aca6e4f	1.1929659649384978
37	0x3fe455be54b54b29	0.6354667334038356
38	0x3ff1f50906639a48	1.122323059994999
39	0xbfe0a5b6fbf34f0b	-0.5202288552195297
40	0x3fdcf946b2271525	0.45271460912438705
41	0xbfd32690b7bc7362	-0.2992288393305015
42	0x3fec443ad7c6ea95	0.8833288397211897
43	0xbfbb885ab61d2378	-0.10754935213220829
44	0xbfe013bc7d54936d	-0.5024092147692564
45	0x3fe10f8bfe518e5a	0.5331478087577566
46	0x3ff0ceb97c6b3228	1.0504698619944381
47	0xbfd4ffdf1509d6b3	-0.3281171517804566
48	0xbff1679ba1cfc290	-1.087794906689087
49	0xbfea074c9c255a3e	-0.813391022655942
50	0x3fd7a646ac41a671	0.36952368566435384
51	0xc00609c986c25e15	-2.7547789123598343
52	0xbfedb374ef4ffb76	-0.9281563448019898
53	0xbfecdb791bbeb6b8	-0.9017911474126867
54	0xbfd2dccfd784bf17	-0.2947272877381563
55	0x3ff1239e76afc801	1.0711960445592015
56	0x3fd7886880e0ffe5	0.36770069681005985
57	0x3fb6d8b1dcc7487e	0.08924399986361384
58	0xbfe94d349e93d43a	-0.7906745049682578
59	0xbff006d6346f0e54	-1.0016691253848835
60	0xbfd336ba7e1f96d3	-0.300215361754778
61	0x3ff0a7766c1e93a8	1.040884420720639
62	0xbffc723c4f15a3b7	-1.7778895463218143
63	0x3ff2ef12e6cd51b0	1.18336763531725
64	0x3fe4c91f065bf67f	0.6495509266093932
65	0x3fd1aea81a8b9f0c	0.27628519623111525
66	0x3feeb50a9d0991b0	0.9595997874389948
67	0xbfdae10869f8dd28	-0.4199849161991147
68	0x3faa085678cf50eb	0.0508448622200904
69	0xbfe0622e3a585745	-0.5119849338104606
70	0x3ff696409dc05840	1.411682716575811
71	0x3ff975316494943e	1.5911115578576438
72	0xbfc62a9e818e1677	-0.1731756336777612
73	0x3fe674cd18b98e0b	0.7017579539210045
74	0xbff7f7a3999b5dcf	-1.4979587555188691
75	0xbf94470294e1198e	-0.019802131974097352
76	0xbfe2dffd35d9a3db	-0.5898424197922582
77	0x3fcce1f541b8b04c	0.22564569195799533
78	0xbfa150881b26b227	-0.03381753283915528
79	0x3fe5e8cd02230edc	0.6846680680978028
80	0xbfe4222af4273828	-0.6291708725564193
81	0xbfe48a80e7fda882	-0.641907170397886
82	0xbfef2296d5278843	-0.9729723132297824
83	0xbfc8bb59dd0efbf0	-0.1932174996745455
84	0x3fed50fd8d37e407	0.91613652784065
85	0xbff694f3daf7874e	-1.411365371074186
86	0xbfd015c32d6510a5	-0.25132827218136305
87	0xbfc553c9264b70cf	-0.16661943788392938
88	0xbff8b3f2d94f90cb	-1.543932770605397
89	0xbfe318dafe76541a	-0.5967841119733095
90	0xbff32c3206a06205	-1.1982898959014403
91	0x3fad9973c863401e	0.05781137295855408
92	0xbfbffebe71fdba8a	-0.12498083384500994
93	0x3fe50a9e48c58abe	0.6575461789437538
94	0x3fa05f3c9ae9f27d	0.03197659865415845
95	0xbfeebbfc562b1d33	-0.9604474719025461

W f8 [2, 72]
0	0x3ff5993569acd910	1.3499044540345189
1	0xbfe628bae24d422a	-0.6924719257313587
2	0xbfef787d1be9941e	-0.9834580941357023
3	0x3fde48aeb47e3094	0.47318618417990277
4	0x3ff70fc4ae312483	1.4413496784566469
5	0x3fc016107a5aaf2c	0.12567335104301358
6	0xbfdff57e16994a27	-0.49935867506897796
7	0xbfc902505a8704e5	-0.19538311405452827
8	0xbfacb131ebea79e6	-0.05603939061005629
9	0x3ff06a9d43bcc3dd	1.0260288854590194
10	0x3fcebcc897563597	0.2401362170170784
11	0x3ffce614f0ca0ff0	1.8061723142463926
12	0x3fe122935ffbd9dd	0.5354706644710024
13	0xbfde1df3891dcad3	-0.4705780829455481
14	0xbff3f7e40017d8f3	-1.2480201724661668
15	0x3feeec7dc851a41d	0.9663685715178222
16	0xc00227770348d230	-2.269269967708418
17	0xc002e68ab5bab251	-2.362569255600001
18	0xbfd6c482d39e7869	-0.35574408212585823
19	0x3fe53e50a777b5a9	0.6638568182803982
20	0x3fd391202c15b825	0.30573276810798894
21	0xc00197f31f4707e8	-2.1991941875030427
22	0x3fd10cfde2f8ab96	0.2664179531590717
23	0xbfdbdc252806bc95	-0.4353115931398375
24	0xbff944bcc9dfff6f	-1.5792816053144312
25	0x3f7b151c77012acc	0.006611930075517147
26	0x3ffe39cf5179db2e	1.889113729730251
27	0x3fcfa1fdb041c5e3	0.2471310721044083
28	0x400117bf53d910f6	2.136595397054516
29	0x3fab61dfc9fd7f9b	0.053481095702181146
30	0x3ff2180715819d07	1.1308661308374341
31	0xbfd0a9f94b6efadd	-0.26037437788538204
32	0xbfa24563fe712dce	-0.03568565827353219
33	0xbfc0e502eb5d7df8	-0.1319888734096677
34	0x3fea2dcca6a57f63	0.8180907492460218
35	0x3ff49e45ffcb3670	1.2886409751839913
36	0x3ff0b8fc4aff5c1d	1.0451624803151909
37	0xbfdf9126643d304b	-0.4932342509171163
38	0xbff07f567cc63011	-1.0310883401862194
39	0xbff317218cf3653d	-1.1931472307099533
40	0x3ff5ef01d3e212c7	1.3708513523753696
41	0x3fde7b13fe2aff5d	0.4762620908841109
42	0x3fcc445f337fe60c	0.2208365441763792
43	0xbfd9c5dacbc6f838	-0.402701090813824
44	0x3febe1ecb2e3d0fe	0.8713286870902548
45	0x3fc83f0d10f3d57b	0.18942416503675105
46	0x3fe6b1eb4698e7a9	0.7092186335423679
47	0xbffbb3eb54a0ef78	-1.7314256006056592
48	0x3ff1d73ca3ac13ad	1.1150480645603509
49	0xbfe1e6e90b787b72	-0.5594372962985814
50	0xbf844aca90ace965	-0.009908278026718073
51	0x3ff5691cbde8de01	1.3381621759743896
52	0xbfdce4a6a361e523	-0.4514557452708507
53	0x3fc1a4495e380dc6	0.1378261289647595
54	0xbfe23b6faa78d22a	-0.569755394890824
55	0x3fc403521cd9d228	0.15635134133084816
56	0xbfd8befc563c1cf8	-0.3866568414818654
57	0x3fe5ff3e125bd5d5	0.6874075277871109
58	0x3ff30198f0ec6326	1.1878899966306533
59	0xbfe1258c0ea28349	-0.535833386024117
60	0x3fb3a205eea538dd	0.07669102741531071
61	0x3ff3f5d612715b03	1.2475186081334761
62	0xbfdb26f169ce905b	-0.42425189335540886
63	0xbfe0f6a10bad91cf	-0.5301060894094521
64	0xbfdb88ae8073a071	-0.4302173857127008
65	0x3fe142ca3fa9dadd	0.5394030803134587
66	0xbfd930b42bd53af0	-0.39359764366683603
67	0xbfb70508e54f56f6	-0.08992057417284713
68	0x3fc6dfcf8983cb8a	0.17870516028014222
69	0x3fe759feb7f572b8	0.729735717100616
70	0x3fea6f8c8df5b8f9	0.8261168263104813
71	0x3fd4ed7f758803d2	0.32699572065035654
72	0x3fe851e8abbfdf80	0.7599986414415838
73	0x3ff1e17d337cdf16	1.1175510417214745
74	0x3fc043d9906ea580	0.12707061340669767
75	0xbfe8a0e9c4f0d047	-0.76964271988846
76	0x3fe3a5233c0d353b	0.6139084027178464
77	0x3fe702b8e05a418e	0.7190822965513222
78	0xbfc418c2e7dc095e	-0.15700565644517445
79	0x3ff592fa82d0565c	1.3483834371485477
80	0x3ff3d68052664b09	1.239868471024865
81	0xc00468672f582e8a	-2.5509780596528957
82	0xbf975d66a359fba9	-0.022817233772453403
83	0xbfd3a70fd2c45c90	-0.30707164366453643
84	0x3ff5abb2f620e28f	1.3544187178032734
85	0xbfe0908a8383a9ab	-0.5176441734923193
86	0x3fa396402f5fafe1	0.03825569704335386
87	0x3fc018c94e0104e0	0.12575641926563375
88	0xbfeae4322a194813	-0.8403559515229538
89	0xbfb98ba077ffe115	-0.09978678636241896
90	0x3fe82d4822b94c51	0.7555275610160469
91	0xbffa2718ae3013f9	-1.634545021458733
92	0xbff13218c8996a7e	-1.0747306667241499
93	0xbfd14e34b5c90ece	-0.2703983092544434
94	0x4001028201e82940	2.1262245320296245
95	0xbfe1f84674c7ba67	-0.561557033621125
96	0xbfd6d636a48f0d86	-0.35682455129809687
97	0x3fa0524af36bedc3	0.03187784406142271
98	0xbfd15418850e864f	-0.2707577990896412
99	0x3fe1c842c18a0bf8	0.5556958942473775
100	0xbff9731c6fb1fa8d	-1.5906032908530137
101	0x3fba996c3353bed2	0.10390354397872706
102	0xbfe0a9ea51a480ab	-0.5207416147786906
103	0xbfe48bc2ed2237a3	-0.6420607215420556
104	0xbfe7955b6aba5c93	-0.7369820675402415
105	0xbfd0fe9181e13de2	-0.2655376213415065
106	0xbfd4768af667dbfd	-0.3197352796846074
107	0x3ffc3b34b6ec16b9	1.764454569377831
108	0xbfc01d268c9e0307	-0.12588960519863
109	0x3ff8398e7df1b1f0	1.5140519065563431
110	0x3ffa6a3a2760914f	1.650934366051917
111	0xbff3079328b6cad1	-1.189349326171101
112	0x3fc981dc3821d2c1	0.1992755197603824
113	0x3fe12c01fd62d36d	0.5366220425554339
114	0x3ff3f49643e25120	1.2472136165352552
115	0xbfee36e0c466c5e7	-0.9441989742246591
116	0x400108d481dc3953	2.129311575444413
117	0xbfd17eefd32d4e78	-0.27337260840179267
118	0x3ff6935bc4035b9c	1.4109761864435546
119	0x3fefefaa0447df95	0.9980058749779227
120	0xbff50d0826bde465	-1.3156816018438573
121	0xbff2672b1a69e68d	-1.1501875907692096
122	0x3fbe12400e93ace0	0.11746597629432953
123	0xbfeab020412f44f1	-0.8339997552049266
124	0x3ff3607907883a73	1.2110529226517002
125	0x3ffeddb0adfd90b8	1.92912357296977
126	0x3fd0a9f46f45a324	0.26037321916969547
127	0xbfc4bd61c70dc84f	-0.16202947825837774
128	0xc00196e0a0b8ffb0	-2.1986706310708186
129	0xbfc90aaa5bb1c08c	-0.19563798405898003
130	0x400bb53919bc3f8e	3.4634878168653307
131	0xbfe380e1da4731de	-0.6094826949352485
132	0xbfee87a3d6dd1a64	-0.9540576168590857
133	0xbff6bab37ecfe78d	-1.420581336364623
134	0x3ff11dceed8b57f8	1.069777419955697
135	0xbfdbe324e89a4dd3	-0.43573878016578965
136	0xbff104ac8eafba62	-1.063641126030824
137	0xbfd26a9972d9ebf9	-0.2877563115686708
138	0x3fd7c1f582334ab0	0.3712133189666629
139	0x3ff0ad963367fdfd	1.042379570775551
140	0x3ffb6bc233459753	1.713808250694872
141	0x3fed8b666530a6b2	0.9232665993087805
142	0x3fdb87317937640e	0.4301265414956682
143	0x3feba9dd27e8f0ad	0.8644853381624863

B f8 [72]
0	0x3ff5cddd867b6ffa	1.3627600911340765
1	0x3fd2026eebfdf8ee	0.28139851614095235
2	0x3ff4742ef815c117	1.2783651057071148
3	0xbff12ba70f792cb8	-1.073157368128518
4	0xbfea72c2e462dc4a	-0.8265089474360903
5	0x3ffab3e7399e63b0	1.668921685288506
6	0xbfd496af7347b287	-0.3216971040517724
7	0x3ff4d6a1e325caa8	1.3024004815057797
8	0xbfde443dc6ca8a1d	-0.4729151192970294
9	0xbfbf97bc0c72c8b1	-0.12340903572001839
10	0xbff1b95fc2bb5095	-1.1077573401171652
11	0xbfe976b31233eaa0	-0.7957396846316733
12	0xbfd54f07f62f3579	-0.33294867555090196
13	0x3fbdb951878be807	0.11610898551217029
14	0xbfd55ea1a094f313	-0.33390083963222245
15	0xbfe759b0c8089d73	-0.7296985537440562
16	0xbfe19b38129320f8	-0.5501976359164749
17	0xbffd7b5f9b95089c	-1.8426204755237796
18	0x3febc2224b3be601	0.8674479932225837
19	0xbff7301cb6d4a20b	-1.4492461339779108
20	0x3fdfaa5246c35a0e	0.4947705927892522
21	0xbff75913deb4b568	-1.4592474650811145
22	0xbfe7a6a7df6731e7	-0.7390937198011301
23	0x3ffd0ea8d60b0d48	1.8160789834081061
24	0x3ff6e738e1c9554e	1.4314507312568199
25	0x40001bdb14d1a2e2	2.013601458213416
26	0x3ff1cd4115734510	1.1126108968640587
27	0xbfc249d541b8eb14	-0.14287820538614737
28	0x3fd0e2ccc8d3babd	0.2638427697374189
29	0x3fb3801b82235f54	0.0761735146255636
30	0x3feb73ffc046f3c7	0.857910037556956
31	0xbfe46de6704968a7	-0.6384155457592627
32	0x3fe0a8e6d268d790	0.5206178769646943
33	0x3fdc0c70bd34222a	0.4382593009654864
34	0x3fae5b9033ca41dd	0.05929232246592495
35	0x3fd91a5356fc2878	0.3922317838156526
36	0x3ff197fa32709f41	1.0996038408574835
37	0xbfe177aaf9d8a637	-0.5458578948793676
38	0x3fe458b3e80a9f53	0.6358279735622808
39	0x3fc7a9b81c00c9a1	0.18486691825235105
40	0x3ff2517b24612041	1.144892828089738
41	0x3fea1c338422bf51	0.8159425335670482
42	0xbfecf84a8eb1f27d	-0.9053089892400547
43	0xc0017dc85f82a16e	-2.1864173375835696
44	0xbffc68a2e1a50ee4	-1.7755459608314874
45	0xbff26e1a70a6fea7	-1.1518806839448332
46	0x3fa689073c4ab90b	0.04401419268593728
47	0x3fe14ede2a3b5fe2	0.540877420887224
48	0x3ffeadca7b1230b3	1.9174294288123235
49	0x3fdb10400259ef8a	0.4228668234788918
50	0xbfee185ef393ab9b	-0.9404749638900854
51	0x3fe06df8903884ea	0.5134241883098671
52	0xbfd52e5e5bad2c31	-0.33095511391428817
53	0x3fd000884d213324	0.2500324967593761
54	0x3fd8a0008a32b47d	0.38476575370697913
55	0xbff1a71de330e2d8	-1.10329998728246
56	0xbfd1c4a8ad85e7b4	-0.27762810655223835
57	0x4000040f4efb13c0	2.0019823236820855
58	0x3ff69c8d9a01c4b5	1.4132209792990527
59	0xbfea274f28fea12b	-0.8172984886814779
60	0x3fe75b7c5890b312	0.7299176912107177
61	0xc00037d4438bb06d	-2.027260329914546
62	0xbfd0cd49184807f4	-0.2625296342013137
63	0xbfac91422aed7b5f	-0.05579573415774663
64	0xbff06474a702fb1f	-1.0245253108875614
65	0xbfe67d3a6220487f	-0.7027866283917915
66	0x3ff4745274e2ef13	1.2783989492299426
67	0x3fd0afc5dcdd7e86	0.26072832650059075
68	0xbff800a897eb1eb3	-1.5001607832254364
69	0x3fe709cfb0c16a96	0.7199476673370835
70	0xbfef949497ba3805	-0.9868872607637519
71	0x3fe2e44bf87cf710	0.5903682568821029
