homework/Kirsten_Ziman_HW1/iris_solution.pt (torch_old, 7306 bytes, 6 tensors)

weight f4 [2, 16]
0.018009312 0.27697295 -0.49511433 -0.43663335 -0.09907913 0.15226114 -0.044446878 0.43703368
-0.004004003 0.1583906 -0.1331878 -0.06633258 -0.5487267 -0.35434854 -0.25556275 0.050280824
0.17186593 0.39025316 -0.37653923 -0.23903877 0.18521202 0.4861191 -0.13791226 0.42025092
-0.09466034 0.016333662 0.49074864 -0.5446945 -0.35957858 -0.17188498 -0.21166928 0.5037364
00000000: 4488 933c 66cf 8d3e a07f fdbe 688e dfbe
00000010: 00ea cabd 58ea 1b3e ee0d 36bd e1c2 df3e
00000020: 0334 83bb 2531 223e 6262 08be 60d9 87bd
00000030: 5a79 0cbf 2c6d b5be 1fd9 82be 44f3 4d3d
00000040: 9ffd 2f3e 43cf c73e c0c9 c0be 94c6 74be
00000050: 38a8 3d3e 9ae4 f83e df38 0dbe 212b d73e
00000060: 48dd c1bd 2cce 853c 6843 fb3e 1971 0bbf
00000070: af1a b8be 9e02 30be d5bf 58be def4 003f

bias f4 [16]
-0.40468037 0.26844 -0.017415311 -0.104358956 -0.157615 -0.04033282 -0.08302595 -0.03262378
-0.051097233 -0.24612992 -0.19173151 -0.09334834 0.07704251 0.0035740468 -0.03987405 -0.0009362598
00000000: 4432 cfbe f870 893e 8eaa 8ebc 26ba d5bd
00000010: d465 21be 0734 25bd 8209 aabd 83a0 05bd
00000020: 554b 51bd 7b09 7cbe 4455 44be 6a2d bfbd
00000030: 77c8 9d3d 8e3a 6a3b f952 23bd 556f 75ba

weight f4 [16, 12]
-0.304795 -0.20951582 -0.329682 -0.4739438 -0.28868505 0.4094406 0.22830738 0.20227855
0.016277302 -0.25558525 0.06565499 -0.43702346 -0.31060502 -0.2408776 0.31498003 0.2644958
-0.2186164 -0.021008419 0.29578224 0.47240198 0.19100527 0.07748963 0.3215573 -0.2457603
0.09331227 -0.36089423 -0.3301458 -0.20256546 0.2254661 0.17924428 -0.29024306 0.1788031
0.25434455 -0.047406014 0.022322811 0.068064176 0.28549618 0.4433891 -0.3712621 -0.14577064
0.1982151 0.38002414 0.3917993 0.43003675 0.091366015 -0.4006523 0.04260538 -0.32208982
-0.409794 0.40946415 0.35634902 -0.46197256 0.079623215 -0.08016998 -0.07690512 -0.18650807
0.18060704 -0.26517248 0.17499012 0.22265105 0.34496376 0.17139237 -0.44767776 -0.313819
0.22522685 0.09500758 -0.359717 -0.26847324 0.44283414 0.31651792 -0.19517668 -0.09084507
-0.4499254 -0.006415091 -0.35449812 -0.36487758 -0.02842318 0.07407102 -0.18301651 0.26519862
-0.28715008 0.41142234 0.31019258 -0.3992144 -0.12522265 0.022992471 0.07367411 0.072755545
0.16907446 0.034680028 -0.2104171 0.17638452 -0.44356292 -0.2875584 -0.12114117 -0.18528572
-0.16550426 -0.3785404 -0.10170121 0.098521374 -0.30219257 -0.022108939 0.3332003 -0.04923764
0.010158871 -0.042809293 0.09074714 0.2869637 0.42220277 0.29821 0.43315387 -0.071039654
-0.43114087 -0.20719813 0.33650684 -0.038291804 -0.23941778 -0.37585765 -0.4476692 -0.38716304
-0.056137342 0.25049868 0.26403627 -0.45281988 0.27557382 -0.36663282 -0.09877415 -0.15118027
-0.081631094 -0.074500605 -0.40362912 -0.40131 -0.09834245 0.009671965 -0.22620316 0.17605859
-0.4133802 -0.024291916 0.41324538 -0.2058622 0.40597424 0.15227312 -0.43148717 0.2679826
-0.03491446 -0.2100816 0.3654021 -0.33011478 0.064974174 -0.107023105 0.310149 0.18521275
0.22509296 0.18261024 -0.10161501 -0.14058797 -0.36486742 0.24748491 0.36487445 0.3507601
-0.31365803 0.011760629 -0.34329465 -0.21141058 -0.26538834 0.1745205 -0.26645306 -0.038478345
0.018284705 0.2980674 -0.3582413 -0.30261135 -0.2606685 0.32243106 -0.17197102 0.40532026
0.16520719 0.059779957 -0.004316077 -0.11546751 0.08295823 -0.10923132 0.009751001 0.0587407
-0.36391988 -0.24916466 0.36722854 -0.3576405 -0.022030704 0.47200093 0.18002933 0.032664225
00000000: 170e 9cbe 518b 56be 14cc a8be c3a8 f2be
00000010: 87ce 93be 33a2 d13e 69c9 693e 1c22 4f3e
00000020: fa57 853c 12dc 82be 2076 863d 8ac1 dfbe
00000030: 9f07 9fbe 9ea8 76be 1045 a13e fe6b 873e
00000040: fadc 5fbe d919 acbc c570 973e acde f13e
00000050: e396 433e e2b2 9e3d 29a3 a43e 97a8 7bbe
00000060: 811a bf3d 21c7 b8be df08 a9be 526d 4fbe
00000070: 96e0 663e d08b 373e bd9a 94be 2918 373e
00000080: 7339 823e cf2c 42bd 54de b63c 3b65 8b3d
00000090: 8e2c 923e e503 e33e 1116 bebe e644 15be
000000a0: e6f8 4a3e 8692 c23e eb99 c83e c72d dc3e
000000b0: 1b1e bb3d 4c22 cdbe fb82 2e3d f5e8 a4be
000000c0: 85d0 d1be 49a5 d13e 6173 b63e ab87 ecbe
000000d0: 7f11 a33d 2930 a4bd 6e80 9dbd f9fb 3ebe
000000e0: 0df1 383e b0c4 87be 9c30 333e a3fe 633e
000000f0: 179f b03e 7b81 2f3e 0536 e5be e2ac a0be
00000100: dea1 663e 5693 c23d d42c b8be 5375 89be
00000110: 28bb e23e a30e a23e 65dc 47be fb0c babd
00000120: 9f5c e6be af35 d2bb c780 b5be 3cd1 babe
00000130: bbd7 e8bc 8cb2 973d ae68 3bbe 1dc8 873e
00000140: 5605 93be f3a5 d23e 90d1 9e3e d465 ccbe
00000150: 5e3a 00be b55a bc3c 74e2 963d dc00 953d
00000160: db21 2d3e a50c 0e3d 9577 57be 259e 343e
00000170: ae1a e3be db3a 93be dd18 f8bd 8abb 3dbe
00000180: f379 29be 0cd0 c1be b948 d0bd 93c5 c93d
00000190: fcb8 9abe ce1d b5bc 3b99 aa3e 68ad 49bd
000001a0: 6571 263c cc58 2fbd a3d9 b93d e8ec 923e
000001b0: f62a d83e fbae 983e 58c6 dd3e 3d7d 91bd
000001c0: 7fbe dcbe bf2b 54be a04a ac3e ded7 1cbd
000001d0: ef29 75be 6a70 c0be e634 e5be 3c3a c6be
000001e0: 45f0 65bd 5d41 803e c32f 873e 02d8 e7be
000001f0: 0318 8d3e 4cb7 bbbe 1a4a cabd 00cf 1abe
00000200: 342e a7bd c693 98bd 7aa8 cebe 8178 cdbe
00000210: c467 c9bd 2977 1e3c cda1 67be b448 343e
00000220: 92a6 d3be d7ff c6bc e694 d33e 8acd 52be
00000230: dbdb cf3e 7ced 1b3e e3eb dcbe 0435 893e
00000240: 7702 0fbd a21f 57be fc15 bb3e ce04 a9be
00000250: 2e11 853d ee2e dbbd dacb 9e3e 69a8 3d3e
00000260: c57e 663e 2efe 3a3e 881b d0bd 4bf6 0fbe
00000270: e7cf babe af6c 7d3e d3d0 ba3e d496 b33e
00000280: c997 a0be a7af 403c 51c4 afbe 047c 58be
00000290: fbe0 87be 80b5 323e 896c 88be 789b 1dbd
000002a0: cec9 953c 4a9c 983e 676b b7be e0ef 9abe
000002b0: 5776 85be af15 a53e 2c19 30be 2386 cf3e
000002c0: 132c 293e d4db 743d e16d 8dbb 3b7a ecbd
000002d0: 01e6 a93d acb4 dfbd aac2 1f3c 179a 703d
000002e0: b553 babe 0525 7fbe 6105 bc3e a81c b7be
000002f0: bc79 b4bc 1baa f13e 9c59 383e ecca 053d

bias f4 [12]
0.14323126 -0.04779072 0.102578096 0.39656296 0.13634321 -0.13227591 -0.22516844 0.22904018
0.1223617 0.24272181 0.16811845 0.14257191
00000000: 37ab 123e 34c0 43bd 7714 d23d 4d0a cb3e
00000010: 8e9d 0b3e 5673 07be 8e92 66be 8289 6a3e
00000020: c598 fa3d 118c 783e 3e27 2c3e 5ffe 113e

weight f4 [12, 3]
-0.51986444 0.29939952 -0.46459538 -0.19483422 -0.20532016 -0.08508389 0.0021935108 0.5685689
0.036575492 0.6551226 0.3441862 -0.4459615 0.30903745 -0.42221394 -0.31816122 0.19401875
0.16574146 0.5093063 -0.2307984 -0.025204994 0.37898308 -0.6007892 0.45756456 -0.53394616
0.012331409 -0.07300816 -0.3710972 0.12429918 0.5579455 -0.2606735 -0.35579088 -0.21245947
-0.66761386 0.30479452 -0.29184788 -0.45313147
00000000: d615 05bf e54a 993e 72df edbe 9f82 47be
00000010: 733f 52be 7640 aebd 01c1 0f3b bb8d 113f
00000020: 2fd0 153d 1db6 273f 2c39 b03e 1155 e4be
00000030: 283a 9e3e 6d2c d8be 07e6 a2be daac 463e
00000040: 21b8 293e e661 023f 6a56 6cbe b47a cebc
00000050: 120a c23e 52cd 19bf e745 ea3e b2b0 08bf
00000060: ae09 4a3c 4d85 95bd 7400 bebe 9290 fe3d
00000070: 84d5 0e3f ff76 85be 392a b6be fa8e 59be
00000080: bee8 2abf 070e 9c3e 166d 95be d900 e8be

bias f4 [3]
0.29854152 0.23551734 -0.53405887
00000000: 6fda 983e 752b 713e 15b8 08bf
