homework/Kirsten_Ziman_HW1/iris_solution.pt (torch_old, 7434 bytes, 6 tensors)

weight f4 [4, 16]
00000000: 42a6 8a3e 8fa8 cc3e 0d6a dfbe ceea e9be
00000010: bace 0abf 122d e8bd 7a9a 84be 61a9 a0bd
00000020: 67e5 163e 44f3 e73e ac3c 4e3e 016e 013f
00000030: 77e5 e7be 1a3b 2fbb 4d6f c2bd b03e 35bf
00000040: b737 b53e 02bc 903e d8f4 51bd d53c 7abe
00000050: d9cd 7e3e c68c db3e 1b58 b7be d377 2c3f
00000060: 94aa 7abe 00c5 29bd 0783 fb3e e4df ec3b
00000070: fd5f 34bf 0537 d8bd b956 893e 2a6f b23f
00000080: 0ab4 86bf cc92 6bbe bfed 8abf 4808 21bf
00000090: 8f7f 22bf c7fa 123f 9416 863f 949d 65be
000000a0: 5ede 953e 3def 41bf f3e5 203f d23f 6cbf
000000b0: 668c 3cbd 8cb3 2c3e 672e 0bbe 213e b9be
000000c0: fba2 8ebf 3d22 723e 5175 4cbf a9b6 a53e
000000d0: 0d3a 403e cd9a db3e d1be 9d3f 3356 2abf
000000e0: 377e 983e fc12 8bbf d106 fd3e 1fb0 2fbf
000000f0: 8153 e03e f943 4f3f dff6 88bf fc9c 4abf
0.2707997 0.3997235 -0.43635598 -0.45686954 -0.5422169 -0.113367215 -0.25899106 -0.078448065
0.14735948 0.45302784 0.20140332 0.5055848 -0.45292255 -0.0026738108 -0.09493885 -0.7079878
0.3539407 0.2826844 -0.05125889 -0.24437268 0.24883212 0.4288084 -0.35809407 0.6737034
-0.24479133 -0.04144764 0.49123403 0.0072288383 -0.70458966 -0.10557369 0.26823977 1.3940175
-1.0523694 -0.23005217 -1.0853804 -0.6290326 -0.6347589 0.57413906 1.047564 -0.22423393
0.29271215 -0.75755674 0.62850875 -0.9228488 -0.046032332 0.16865367 -0.1359192 -0.36180213
-1.1143488 0.23645873 -0.7986651 0.3236592 0.18772145 0.4289154 1.2323858 -0.6653778
0.29783794 -1.0865169 0.49419263 -0.68628114 0.43813708 0.80963093 -1.0700339 -0.7914579

bias f4 [16]
00000000: aee6 933f bca1 3fbe b1f5 c93f c092 d63c
00000010: 1680 2cbf a932 25be 2357 92bf ec25 61be
00000020: 7131 b13e 0424 223f 8b26 09bf b2ca 9f3e
00000030: 1292 3d3f 565f f6be afb1 503f 9f46 c13e
1.1554773 -0.1871404 1.5778104 0.026193023 -0.67382944 -0.16132607 -1.1432842 -0.21987122
0.34608033 0.63336205 -0.53574437 0.31209332 0.7405101 -0.4811961 0.81521124 0.37749192

weight f4 [16, 12]
00000000: 7d3f 803d 4ceb 01bf f500 52bd b774 29be
00000010: 4a74 603f fdbb 1e3e f2ec 80bf 546c 0cbf
00000020: b241 df3e 9546 053f 72ae 143e ca21 043f
00000030: 3ac1 babe ce49 c0be 6350 383c 98a8 9dbe
00000040: 2140 9abe ea87 053f eecf 5b3b ee20 0dbf
00000050: 7d94 9e3e 60eb a43d ec3e 34be 9946 01be
00000060: 3bb9 0f3f fc7f 12bf 4782 ee3d d861 fd3c
00000070: 61ea 0a3f 9a1d dcbd 80c1 19bf abd3 a8be
00000080: 7edd 153e a28d 683d 70b4 cebe c827 4bbe
00000090: 991f 013f d28e 6d3e 6f98 4dbe 8b23 37be
000000a0: e8dd 03bf 2a64 a73d c659 89bd 50d6 a5be
000000b0: ba54 26bd 32fc 3f3d 5d01 5fbe f1fc a03e
000000c0: 5cbd 05bf 6df1 b53e ccf0 483e dae7 0bbf
000000d0: 1ac8 29be a601 2d3e 56c0 f93c e0cf 2c3d
000000e0: 411a 2a3f 3cca c73e ab49 16bf 7527 0e3f
000000f0: ada9 26bf ce75 38bb 17ad 03be 4251 8abd
00000100: 47a8 afbe 638d 16be a5f3 7c3d c559 9e3e
00000110: 124b debe 84d0 aa3b f732 d23e 18a5 bdbc
00000120: 9401 1a3d 335f f93e 2940 0d3e c438 0e3f
00000130: 1243 86be e1fb 273f abb8 9c3f 9322 cd3e
00000140: 4621 20bf ea9e a2be 60a5 003f 9b19 90bd
00000150: 2acd 27be 8aa4 f8be 69f6 0cbf 01cf dcbe
00000160: c9b6 01be 2f00 7b3e 9d59 15be 0804 eebe
00000170: 8060 ff3e aaf6 24bd ee46 aabe f8d9 da3d
00000180: fbe4 c6bd cf8c 433d 3e53 a3be 76c7 84be
00000190: b8b5 05be b6eb f63c 2745 a53d 66de 763e
000001a0: 7601 34bf 35f2 8dbe 3222 213f f789 cfbe
000001b0: 38cc 903e b8e8 6bbe 1b16 cfbe ec91 bb3d
000001c0: d030 0c3f 0567 e7be 42f3 b9be afe3 5dbf
000001d0: 12af 7c3e 078b 84bd 9d67 583e b3d5 a93d
000001e0: fc23 06bf 163a 5c3e f8e4 61bd 08c3 86be
000001f0: d411 803b c0f0 b43e 8bfb f33d 755a 9e3d
00000200: d5b5 b23d 2125 243e 3de7 bebe c580 90be
00000210: 139d 81be e45e 2bbe 6c41 95be 8ca5 66be
00000220: f0c7 ce3e ecf5 7e3d c2af 57bf c53f 06bf
00000230: 8986 713d d7f5 cc3e 3f52 c9be c87b f93e
00000240: 8b66 613e ee2f 02be 72ca 863d d0bf 71be
00000250: 0386 ee3e 881b 8fbe 0ea9 51bc c28d 22be
00000260: 76aa e6be 6ea0 d1be 1de7 ec3e 04f0 06bf
00000270: 813d afbe 3f53 073f d325 7c3e c50a 0abd
00000280: 6ab8 c3be 877c ae3e 843c e83c 6b86 d9bd
00000290: 0447 b0bc 9a4b eebd 208a 5e3d feaf 8b3e
000002a0: 12c2 f13e 793a fe3d 5ce8 7c3e bc3b cfbe
000002b0: f57a dd3e 79b5 27bf b4cc edbe b0bf 993d
000002c0: 39bb a23d 15d9 903e 7a01 2dbe a322 5a3c
000002d0: d776 023f 258e 40bf ac9b 2e3e e727 01bf
000002e0: d529 833d 3cc7 26be 0540 7dbf c4fb eb3c
000002f0: 9d06 a03e 2325 fe3d 8a15 dabe 7845 053e
0.062621094 -0.5074966 -0.051270444 -0.1654843 0.87677443 0.155014 -1.007231 -0.54852796
0.4360481 0.52060825 0.1451967 0.5161406 -0.36475545 -0.37556309 0.011249634 -0.3079269
-0.3012705 0.52160513 0.0033540684 -0.5512837 0.30972663 0.08052707 -0.17602128 -0.12624587
0.56142014 -0.5722654 0.11645942 0.030930445 0.54263884 -0.107478335 -0.6006088 -0.3297399
0.14635274 0.056775697 -0.40372038 -0.19839394 0.5043884 0.23199013 -0.2007768 -0.17884652
-0.5151048 0.08173402 -0.06706576 -0.3239007 -0.040608145 0.04687137 -0.21777864 0.3144298
-0.52242064 0.35535756 0.19623107 -0.5465065 -0.16580239 0.1689516 0.03048722 0.042190433
0.6644631 0.3902148 -0.5870616 0.55528957 -0.65102655 -0.002814639 -0.12858997 -0.0675378
-0.34308073 -0.14702372 0.061755795 0.30927864 -0.4341665 0.0052128453 0.41054508 -0.023150012
0.03759916 0.48705444 0.13794006 0.5555537 -0.26223046 0.6561871 1.2243856 0.4006544
-0.6255077 -0.31761867 0.5025234 -0.07036134 -0.16386858 -0.48563033 -0.5506349 -0.4312668
-0.12667383 0.24511789 -0.14584966 -0.4648745 0.4987831 -0.0402743 -0.3325724 0.106861055
-0.09711643 0.047741707 -0.31899446 -0.25933427 -0.13057601 0.030141693 0.080698304 0.24108276
-0.7031473 -0.27723852 0.629428 -0.40534946 0.28280807 -0.23037994 -0.40446553 0.09158692
0.5476198 -0.45195785 -0.36318403 -0.8667554 0.24676159 -0.0647183 0.21133275 0.08292713
-0.5239866 0.21506533 -0.055150002 -0.26320672 0.0039083753 0.35339928 0.119132124 0.07732097
0.08726088 0.16029789 -0.37285796 -0.28223243 -0.2531515 -0.16735417 -0.29151475 -0.22524089
0.40386915 0.062246248 -0.8425256 -0.52441055 0.058966193 0.4003131 -0.3932056 0.4872725
0.22011773 -0.12713596 0.06581582 -0.23608327 0.46586618 -0.27950692 -0.012796653 -0.15874389
-0.45051926 -0.4094271 0.46270075 -0.52709985 -0.3422661 0.528614 0.24623804 -0.033701677
-0.38226634 0.34079382 0.028349169 -0.10621341 -0.021518238 -0.116355136 0.054330945 0.2728271
0.47218376 0.124134965 0.24698013 -0.4047526 0.4325787 -0.6551128 -0.4644524 0.075072646
0.07945866 0.2829062 -0.16895095 0.013313922 0.50962585 -0.75216895 0.17051572 -0.5045151
0.06404463 -0.1628694 -0.9892581 0.028806575 0.31255046 0.12409427 -0.42594558 0.13014781

bias f4 [12]
00000000: adb2 0b3f f2ff e6be 54b6 0c3d 7022 0dbe
00000010: 08ce 183f cc23 bdbe f170 69bf eac8 a7be
00000020: 5584 ffbe 7267 b7be 3314 d03e 92a3 a8be
0.5456951 -0.45117146 0.03435357 -0.13782668 0.5968938 -0.36941373 -0.9118796 -0.32770473
-0.4990565 -0.3582111 0.4064041 -0.32937294

weight f4 [12, 3]
00000000: 0702 25bd 759e e93e 6fa7 84bf 64c2 97be
00000010: 77b9 39bf 6086 1d3f a743 c83d 4d84 e93e
00000020: 5f44 e93e f942 67bf d551 39bd 4256 413f
00000030: db82 c43e 64d1 2e3f e56b 30bf 205d a83e
00000040: 555a 78bf 1fac b4bd b6bc 68bf 7c78 8dbf
00000050: 3002 d53f 0709 c7bf b52c 91bd 2d00 ab3f
00000060: 091e a53f 2679 98bf a6f1 7abf 8c7e cb3f
00000070: 5708 86bd 7a39 dfbe 117f b1bf 12ad 593f
00000080: 0ec2 be3e cc80 813f 78b1 45bf cdcf dcbe
-0.040285137 0.45628706 -1.0363597 -0.29640496 -0.7254862 0.61533165 0.09778529 0.4560875
0.45559976 -0.9033657 -0.045244057 0.75522244 0.38381085 0.68288255 -0.68914634 0.3288355
-0.97012836 -0.08821892 -0.9091295 -1.1052394 1.6641293 -1.554963 -0.07088605 1.3359429
1.2899791 -1.1911972 -0.98024976 1.5897994 -0.065445594 -0.4359854 -1.3866903 0.8502971
0.37257427 1.0117431 -0.7722392 -0.4312729

bias f4 [3]
00000000: 8a4c a63c 7225 b73e 708a c1be
0.020300169 0.35770756 -0.37800932
