homework/Kirsten_Ziman_HW1/xor_solution.pt (torch_old, 5796 bytes, 4 tensors)

weight f4 [2, 3]
00000000: ced6 ee3f c8f5 1a3f c776 27c0 129b 01c0
00000010: 8d34 b6be 85e8 2d40
1.8659303 0.6053128 -2.6166246 -2.0250897 -0.35586968 2.7173169

bias f4 [3]
00000000: 0a36 68bf 460d 06be d402 b5bf
-0.9070746 -0.13091001 -1.4141488

weight f4 [3, 2]
00000000: 256b a3bf 92e8 0740 a7eb b7be a047 0d3f
00000010: d453 04c0 b8b7 c23f
-1.2767073 2.12357 -0.35921976 0.55187416 -2.0676165 1.5212317

bias f4 [2]
00000000: 670c b9bf 680c b93f
-1.445691 1.4456911
