Kirsten_Ziman_HW2/base_state_dict.pt (torch, 107733 bytes, 20 tensors)

conv_1.weight f4 [16, 3, 3, 3]
00000000: 36e6 843f c40a 2d40 05f4 4b3f 2188 c7bd
00000010: 0c23 113f 16ec 4ebe 6319 9abf 2d5a bbbf
00000020: ddc9 04c0 6a5a 12be 3b19 b9bf f356 a7be
00000030: c6e3 21be 67c5 3abf cda6 b13e 0e6f d83e
00000040: 9345 4a3f 842f 5e3f e154 02bf 9ad6 34c0
00000050: beee 27bf 2746 813e aa85 3dbf 6ac3 903f
00000060: 86a7 0a3f d4d9 af3f 4bf2 d23f 5d79 09bf
00000070: a8c8 01bf fe42 8bbd 71cc c0be bd2a 23bf
00000080: f2c9 17bf dff1 98be a437 80bf 0f9f 17bf
00000090: 6c61 2c3f 4360 803f 1029 613f e92a 863f
000000a0: a521 903f fc89 633f 3903 413f 8677 023f
000000b0: e25b 1d3f ee60 37bf 2d54 0dbf c821 0dbf
000000c0: 41a5 25bf fd18 bfbe 1c9d debe 0652 7ebd
000000d0: 3588 c23d 5d05 213e 61d3 12bf 7657 40bf
000000e0: 96d1 46be 1359 28bf 0e09 6ebf bc77 07bf
000000f0: 2827 3abe e727 f7be 23bd 44be 7e15 723e
00000100: 7884 793e 2875 e83e 0ced 473e fcb1 bf3b
00000110: 3676 603e a3f4 fc3e d29a 403d e7dd c13e
00000120: 336b 843e 2b87 1b3f c4de a53f 1e6c 093e
00000130: 6398 da3d ae0b f53e 63eb 703d 1eb5 11be
00000140: 6024 b23e 715d cbbc 1fff 04bf c4d7 e4bd
00000150: de78 f43d 9c61 c3be bac6 39bd 7646 8e3e
00000160: 5794 9dbe f0c6 dfbe c18f 873f 0788 713f
00000170: cd51 723f ba0f 2b3f 88bb a43e 0420 913e
00000180: 1a27 373e e5f8 fdbe ba02 5abf ea4a c83e
00000190: 2834 973f 481a a13f 50a1 29bf d129 d4be
000001a0: 6c96 29be 4dd0 73bf 38bd c1bf 70c3 9cbf
000001b0: ee94 c53f 7b0e 81bf 0406 98be 8770 1640
000001c0: 452b 2fc0 fc55 823c 7265 0840 43e6 03c0
000001d0: 289c 10bd 47d7 773c df43 69bf 0963 123f
000001e0: afe6 513f 601d 0fc0 6a12 af3f 6727 573f
000001f0: d532 dbbf cf6f a43f 6bbe 0fbf 9d52 85be
00000200: 91e2 513f 378b 903d 10f5 b0bf ff34 0040
00000210: acf8 b0be 151a c7bf 5b43 983f cd85 bdbe
00000220: eef0 b63d 032b eb3d b2f3 57be 8c4f 3b3e
00000230: 2f07 86bd 9888 1abe 5142 713e 85a4 a43d
00000240: f4ff d83e 54b7 f63c caa8 e3be b347 883f
00000250: 2b55 573e 4eed 8ebf 161d 3e3f ab0f 3e3c
00000260: 1eae 3fbf 3f9e 743f 067d 9d3e 9213 afbf
00000270: a792 ee3f 4015 ef3e 748e ffbf f5b5 a63f
00000280: 6c76 cf3d 68a4 eabf c989 bebf 6667 5bbf
00000290: 11ea 87be 747a 95be c5e2 063f bb53 b33f
000002a0: 775f 4b3e 47e2 903f 10aa d53f 9e50 e4be
000002b0: 9bef 8cbd 2b24 8a3e f989 b0bf ff1e 35bf
000002c0: 0495 2dbd a8ca acbf 2643 4bbf a614 b0be
000002d0: 929d a63f b9ee ac3f 45d2 763f 47a9 a33d
000002e0: cfe5 153f 67de fc3e dea0 5dbf 2d79 01bf
000002f0: b099 0ebf 3926 393f 44b5 d73f 66fa 303f
00000300: de50 a8bf a8e4 0cc0 3f29 efbf 8b7e 063f
00000310: dc2e 083f 6a40 843f bd1b 013f 9289 b43f
00000320: 54c7 303f fd59 72bf b679 03c0 6503 cabf
00000330: a744 fc3e edbd 5d3f c676 563f f5f9 5f3e
00000340: 0861 953f 320d e43e 98f3 83bf a3e8 03c0
00000350: 0c2c d9bf 2f32 453f 9286 863f 41c4 813f
00000360: 34b2 12be 8c06 8dbf fd44 803f 11a1 89bf
00000370: 6ab0 89bf e4bd 2040 86fb b53f 458c 0640
00000380: 3b97 6bc0 0295 3f3e 3415 8cbf a512 853f
00000390: 91b3 b3bf 421f b9bf c6d7 1040 819e 9e3f
000003a0: 26ca 0540 d09e 32c0 3cce 193f 4088 25bf
000003b0: e801 bb3e e3bb 89bf f40b 7dbf afcf f23f
000003c0: 712c e63e a4e2 e13f 18df 1cc0 1059 1a3f
000003d0: 0c69 8fbd 1284 81bf 3da0 703f a0c6 3ebe
000003e0: 58e6 00bf 546d ac3e 37d7 cfbe 105c 03bf
000003f0: 0db0 e2bd 1361 30bf 778f 8fbf 5c0b c0be
1.0382755 2.703782 0.7966922 -0.097427614 0.566941 -0.20207247 -1.2038997 -1.4636894
-2.0748208 -0.14292303 -1.4460825 -0.32683524 -0.15809545 -0.7295746 0.3469757 0.42272228
0.7901241 0.86791253 -0.50910765 -2.8255982 -0.65598667 0.25248834 -0.7403208 1.1309636
0.5416187 1.3738351 1.6480192 -0.5370081 -0.506968 -0.06799887 -0.37655976 -0.6373709
-0.5929252 -0.29872033 -1.001698 -0.5922708 0.67336154 1.0029377 0.8795328 1.0481845
1.1260267 0.8888242 0.7539554 0.5096363 0.6146833 -0.7163228 -0.5520657 -0.5512967
-0.6470528 -0.37323752 -0.4347924 -0.062089942 0.09498636 0.15724702 -0.5735379 -0.75133455
-0.19415888 -0.65760916 -0.92982566 -0.52917075 -0.18179 -0.4827263 -0.19212775 0.23641011
0.24366939 0.45401883 0.1952402 0.005850075 0.21920094 0.49405393 0.04702265 0.3786461
0.25863037 0.60753125 1.2958608 0.1342015 0.10673597 0.47860473 0.058818232 -0.14229247
0.34793377 -0.02482483 -0.51951784 -0.111739665 0.11937116 -0.38160408 -0.045355536 0.27788132
-0.30777237 -0.43706465 1.0590745 0.94348186 0.9465607 0.6682087 0.32174325 0.28344738
0.1788601 -0.49603954 -0.8516041 0.39119655 1.1812792 1.2586145 -0.6626177 -0.41438153
-0.16561288 -0.95239717 -1.513587 -1.2247143 1.5436075 -1.0082544 -0.2969209 2.3506181
-2.737016 0.015910141 2.1311917 -2.060929 -0.035305172 0.01512701 -0.9111919 0.57182366
0.8199262 -2.236168 1.3677495 0.840445 -1.7124888 1.2846621 -0.5614993 -0.2603959
0.8198634 0.07057803 -1.3824787 2.0032346 -0.34564722 -1.5554835 1.1895555 -0.37016144
0.089326724 0.11482813 -0.21089056 0.18292063 -0.06544339 -0.15091169 0.23560454 0.08039192
0.42382777 0.030116715 -0.44464713 1.0646881 0.21028583 -1.116617 0.7426313 0.011600415
-0.74875057 0.95553964 0.30759448 -1.3677847 1.8638505 0.466959 -1.9965348 1.3024279
0.10130009 -1.8331423 -1.4885799 -0.8570465 -0.26545766 -0.29194987 0.5268977 1.4009928
0.19860636 1.1319054 1.6692524 -0.44592756 -0.068816386 0.2698072 -1.3792106 -0.7075042
-0.04237844 -1.3499346 -0.79399335 -0.34390754 1.3016837 1.3510352 0.96414596 0.079912715
0.58553785 0.4938843 -0.8657359 -0.50575525 -0.5570326 0.7232395 1.6852193 0.6913208
-1.3149679 -2.201456 -1.8684462 0.5253684 0.531965 1.0332158 0.5043295 1.4104483
0.6905415 -0.9466856 -2.0543036 -1.5782286 0.49271128 0.8661793 0.83774984 0.21872695
1.1670237 0.44541317 -1.0308714 -2.061074 -1.6966567 0.770297 1.0509818 1.0138017
-0.14325792 -1.1017623 1.0021054 -1.0752279 -1.0756962 2.51159 1.4217384 2.1023114
-3.6811054 0.18709186 -1.0943971 1.0396315 -1.4039174 -1.4462664 2.2631698 1.2392122
2.0904632 -2.7909431 0.60080314 -0.64661026 0.36524892 -1.0760463 -0.98846364 1.896963
0.4495578 1.764729 -2.4511166 0.6029215 -0.07002458 -1.011843 0.93994504 -0.18630457
-0.50351477 0.3367716 -0.40593883 -0.5131235 -0.11068735 -0.68898124 -1.1215657 -0.37508667

conv_1.bias f4 [16]
00000000: 6578 c83d 26da f73b c86a 9dbd 7c3e 29bd
00000010: 424a ce3c 8c0d b4bd faad 6a3d e66c d6bd
00000020: e90b e3bd 877e e5bd 7ba7 bfbc 4dd2 9e3d
00000030: b18b dfbd e450 c43d 3df6 3cbd 4d59 0a3d
0.097885884 0.007563847 -0.076863825 -0.041319355 0.025181893 -0.08791646 0.057294823 -0.104699895
-0.11086256 -0.11205774 -0.02339529 0.077549554 -0.10915316 0.09585741 -0.04613327 0.03377657

bn_1.weight f4 [16]
00000000: 2ecd 0440 56e1 533f 427a 933f a039 be3f
00000010: 37cb 2740 d819 0340 8ed0 a53f 7da4 0d40
00000020: 6ed8 2d40 cbb9 6f3f f07a c63f ee21 d23f
00000030: b408 903f 4269 9e3f 8c8c 7f3f 6c5d b53f
2.0750232 0.8276571 1.1521685 1.4861336 2.6217782 2.0484524 1.2954271 2.2131646
2.7163348 0.9364287 1.5506268 1.6416605 1.1252656 1.2375872 0.9982383 1.4169135

bn_1.bias f4 [16]
00000000: 3df2 03bf 43b8 263e ecfb 89be 2ecc b53e
00000010: e2b8 41be c8b2 c8bd f8d4 993f fc10 91bd
00000020: de63 36be ba90 163f 7fbb 2e3e 7732 8dbf
00000030: 5e36 9b3d a8e0 5ebe 3f28 a6bd 0b6e 0cbf
-0.515415 0.16281228 -0.26950014 0.3550734 -0.18918183 -0.09799725 1.2018118 -0.07083318
-0.17811534 0.58814585 0.17063712 -1.1031026 0.07578729 -0.21765387 -0.08113145 -0.5485541

bn_1.running_mean f4 [16]
00000000: 5481 913d d920 89be c800 c83f 3644 f3be
00000010: d636 a73e 5a2b a23e 2152 1d3f 432b 6c3e
00000020: 5861 0bbe 114e 4f40 4317 183e 5b74 ec3f
00000030: c8c0 d2be 4d11 593f 9281 01c0 890c 183f
0.071047455 -0.26782873 1.5625238 -0.47512978 0.32659024 0.316737 0.61453444 0.23063378
-0.13611352 3.2391398 0.14852624 1.8473009 -0.41162705 0.84792024 -2.0235333 0.5939413

bn_1.running_var f4 [16]
00000000: ed82 9246 6407 3c46 ec0f 0047 61d7 3847
00000010: a18a 8347 40d7 7d47 8e24 0747 81af 8547
00000020: bbf9 3147 5467 1f47 6b42 8c47 0a52 cc46
00000030: 56c2 bb46 7aa7 aa46 475e da46 8527 bd46
18753.463 12033.848 32783.92 47319.38 67349.26 64983.25 34596.555 68447.01
45561.73 40807.33 71812.836 26153.02 24033.168 21843.738 27951.139 24211.76

conv_2.weight f4 [32, 16, 3, 3]
00000000: e454 d0be e03c c43d 3840 01bf 3b7b f83d
00000010: c5b2 0a3f b5fc e5be 2a1a 94bd 916b 123d
00000020: e5fd 26bf 362a 5b3d 8c99 f53c 5e0e 223e
00000030: 26e5 5ebe ad8f 18be bc68 a73d 80bc d2be
00000040: c2a3 8bbe 9bff b9bd 7719 113c e3b8 563d
00000050: fed1 e13d 8e7e aebe 6c34 38be c7e4 23bd
00000060: cd52 03bf bd93 d0be 2ff2 93be 8028 e33d
00000070: c9da 1e3e 8481 0c3e 8a17 58be 3736 bfbe
00000080: ff78 c1be e656 d3bd cc9d 05bc 219e 473e
00000090: c4bb 4abe 431e d2be 750a 2a3b 8cac 3b3e
000000a0: e187 d13e a3a7 a63e 1d77 953e e293 5b3f
000000b0: 79a8 423f b682 a2be cedc 27bf c360 0bbf
000000c0: e21a 8ebd b6b7 1abf 09b1 9dbd 94db e0bd
000000d0: fa62 b4bd 57f1 d13e e43f c03e 381a fe3e
000000e0: 5ec7 1e3e ffc4 af3d bc59 acbe 8da2 56bf
000000f0: b1ad 063f 9d64 2dbd 5bcb 8fbe eb18 9a3d
00000100: 8964 f23e 5737 e83d 8b40 d53d b6e9 173f
00000110: 4971 923e 1f97 14bd 7750 083f 8a4b 873e
00000120: 3cbc 66be 0662 e73c 6857 ca3e 5098 d6be
00000130: 0f2e 02bf d353 9c3d 1bd7 ac3d 401c 9cbd
00000140: 7067 fd3d 935c f03e ae77 133d 27f0 92bd
00000150: 1d01 253e 756c 63be 4db9 b2be dc79 393e
00000160: 9a63 2cbe 2701 d1be 7200 30be 327a a53d
00000170: ed38 4fbd 8e48 6fbe 60ce 0ebe a85b a3be
00000180: a600 b2be eaa0 f0bd 84e0 c7be 0a9e d33d
00000190: 872a b83d f2db 063e d152 93be 1779 cbbe
000001a0: 086c d5be 13bb 39be 2f6c 95be b00c 9abe
000001b0: b982 17be 286c 57bd 317f 2e3d a695 95bd
000001c0: c032 31be 0d51 d8bd 7b8b 08be 738f 99be
000001d0: 357f b1be 1f5f febd 4dd5 f1bc 10ce 01bd
000001e0: d643 34bd 7979 423d 09e5 acbb bbb5 1dbe
000001f0: 294f 92be 879b 52be 5a4d 81be 046b 4cbd
00000200: 4f2c debe 985a 71be 0408 81be d015 17bf
00000210: dd81 cabd a342 9ebe eaab 09bf fe4a c9bd
00000220: 59c9 a1bd 921c 90bd 233e d83d 1c7e 1a3e
00000230: b081 743e 434c 20be 37c0 7fbe 581f 67be
00000240: 9bab ce3e e0db 033f 50c2 c43e ccfa dd3e
00000250: d723 b5bd 4d28 9dbe 0630 1dbe 0064 fe3d
00000260: a8c5 31be e0b0 64be d51b a4bd 40bd 773d
00000270: e4e9 9ebe eb24 54be f66a 17be df00 97be
00000280: 69f0 8cbe eace cdbe 4214 a7be 3c05 77be
00000290: 323e 8abe 6e1c f3be 0230 b4be 3517 d3be
000002a0: eb9f d0be 02d3 d0be 4e42 cebe 789b 40be
000002b0: 091b f1bd 9573 0fbe de1e 09be a62d 4dbe
000002c0: 7088 22bf 8748 3ebe 1df2 063d cd8f c8be
000002d0: d0ba c9be f4a6 89be 19ca 0abe 756c 5abe
000002e0: 546d bbbe 91a4 253e d5e1 a4be 8d1a edbe
000002f0: d0ff 62be 6e81 74bc 1d1d 14be ce3f 8fbe
00000300: ffc5 f33c 719e 543e 45ff 763d f1b9 9cbe
00000310: 6b82 5ebe ea42 1bbd c220 09bf 4d33 b83c
00000320: a92a aa3d f2b5 14bf 1b98 96bd 6b88 53bd
00000330: 04ee eabe 3e2b 30bd 7460 3b3e 49cd cebd
00000340: 411b 823e 986a 7c3e 0913 703e 8df1 823e
00000350: da5f 813e 527e 553e 47da c43e 4682 03be
00000360: 2bdc 8b3d 867f f13e 2f20 2bbd 9991 b43e
00000370: a8f1 dc3e 6d5a 89bd 09aa 893e d88f 99be
00000380: 9eed 3c3e 04ad 623e 6986 083e 2034 c03d
00000390: 5bbb e4bd e92e 08be 3fdd 6cbe acd6 0ebe
000003a0: f3a1 a9bd 4383 8dbe c7be bebe 3453 2ebe
000003b0: f788 3ebe 9ab4 cb3c 3fa5 a73d a553 14be
000003c0: 66df 81be 1837 0abe 7565 4ebe 5a51 7fbe
000003d0: d5d4 22bd 4430 19bd 0240 56be 84bd 6cbe
000003e0: b3c5 5cbe 7f63 53be 1c5c 193d 731a b2bd
000003f0: 380f 6a3e 1d68 423e f5f0 303e a1b2 6fbc
-0.40689766 0.095819235 -0.50488615 0.12132879 0.5417903 -0.44919363 -0.07231553 0.035747115
-0.6523116 0.053507052 0.029980443 0.15825793 -0.217671 -0.14898558 0.08174273 -0.4115944
-0.27273375 -0.09081956 0.008856169 0.052422415 0.11026381 -0.3408093 -0.17988747 -0.0400131
-0.5129822 -0.40737715 -0.2889571 0.11091709 0.15513147 0.13721281 -0.2110273 -0.3734605
-0.37787625 -0.10319309 -0.0081552975 0.19493915 -0.1979819 -0.41038713 0.0025946174 0.1832754
0.4092398 0.32549772 0.2919244 0.85772526 0.7603832 -0.3174035 -0.65571296 -0.5444452
-0.06938721 -0.6043657 -0.076997824 -0.10979381 -0.08807941 0.4100444 0.37548745 0.49629378
0.1550574 0.08582496 -0.33662212 -0.8384178 0.5260878 -0.04233228 -0.28084835 0.07524284
0.47342327 0.1133868 0.10412701 0.5934099 0.28602055 -0.036276933 0.5324778 0.2642482
-0.22532743 0.028244983 0.3951981 -0.4191308 -0.5085153 0.07633176 0.084394656 -0.07622576
0.12373245 0.4694563 0.036002807 -0.07174712 0.16113706 -0.22209342 -0.34906998 0.18112892
-0.1683487 -0.40821192 -0.1718767 0.080799475 -0.050591398 -0.23367521 -0.13945913 -0.31905866
-0.3476612 -0.11749442 -0.3903848 0.10332878 0.089924864 0.1316984 -0.2877412 -0.39740822
-0.41683984 -0.1813777 -0.291841 -0.30087805 -0.1479596 -0.05259338 0.042601768 -0.07303934
-0.17304516 -0.10562334 -0.13334458 -0.29992256 -0.34667364 -0.12420487 -0.029520655 -0.031690657
-0.044010006 0.047479127 -0.0052763266 -0.15401356 -0.2857602 -0.20567141 -0.25254327 -0.049906746
-0.4339318 -0.23569715 -0.25201428 -0.5901766 -0.09888051 -0.30910215 -0.53777945 -0.09828757
-0.07899732 -0.07036699 0.10558727 0.1508717 0.23877597 -0.15654092 -0.24975668 -0.2257055
0.403653 0.5150738 0.384295 0.43355405 -0.088447265 -0.3069481 -0.1535035 0.12421417
-0.17360556 -0.22333097 -0.08013121 0.060483217 -0.3103782 -0.20717208 -0.14786896 -0.29492852
-0.27527168 -0.40196925 -0.32632643 -0.2412309 -0.27000576 -0.47482628 -0.35192877 -0.41228643
-0.40747008 -0.40785986 -0.4028496 -0.18809307 -0.11772735 -0.14008935 -0.13390681 -0.20036945
-0.6348944 -0.18582354 0.03294574 -0.3917221 -0.3940034 -0.26885188 -0.13553657 -0.21330436
-0.36606848 0.16176058 -0.32203546 -0.4630932 -0.22167897 -0.014923437 -0.14464231 -0.27978367
0.029757498 0.20763566 0.060302038 -0.30610612 -0.21729438 -0.03790561 -0.5356561 0.0224854
0.08308918 -0.58090127 -0.073532306 -0.05164377 -0.45884717 -0.04300999 0.18298513 -0.10097749
0.25411418 0.24650037 0.23444761 0.25574914 0.2526844 0.20848969 0.38447782 -0.12842664
0.06829103 0.47167605 -0.04177874 0.35267332 0.4315312 -0.067067005 0.2688754 -0.29992557
0.18450019 0.22136313 0.13332523 0.09384942 -0.11168548 -0.13299145 -0.23131274 -0.13949078
-0.082828425 -0.27639207 -0.37254927 -0.17023927 -0.18606935 0.024866391 0.08185815 -0.14485033
-0.25365752 -0.13497579 -0.2015589 -0.24933377 -0.039753754 -0.037399545 -0.20922855 -0.2311917
-0.21559791 -0.20643423 0.037441358 -0.08696451 0.22857368 0.18985029 0.17279418 -0.014629991

conv_2.bias f4 [32]
00000000: b137 a93c 3f38 483d 1cb5 383d 1f2c 3f3d
00000010: 2b30 373d 5c39 263d 1024 563c 5b1b 89bb
00000020: 0ce7 f83a a708 aabc 693c c03c cf95 bd3a
00000030: 780e 413c 5fc4 03bd 0103 9abc 4358 193d
00000040: 5d38 9f3b 4030 8d3c 609b 32bd bf2e afbc
00000050: 90e1 a6ba 46fc abbb 5f94 023d 77e8 76bc
00000060: 36b6 2a3d 5b47 1ebc 5328 9f3c 2404 10bd
00000070: 00ef 0a3c 826d 47bd a480 2fbd 34e7 02bd
0.020656439 0.048881765 0.045094594 0.046672937 0.04472367 0.040582046 0.013070121 -0.004184169
0.0018989756 -0.020756079 0.023466306 0.0014464202 0.011783235 -0.032169696 -0.01880026 0.03743769
0.004859014 0.017234921 -0.04360521 -0.021384595 -0.0012732018 -0.005248579 0.03187978 -0.015070072
0.041677676 -0.009660567 0.019428408 -0.0351602 0.008479834 -0.04868842 -0.04284729 -0.031958774

bn_2.weight f4 [32]
00000000: da83 8a3f 33e2 a63f ce2c b23f c542 c63f
00000010: c97a 0d40 f369 b83f c26c 9f3f 5fe6 f03f
00000020: 6853 d33f e629 d03f c67d b53f 94eb 9c3f
00000030: 5d30 b83f 7c8e a23f dd64 a13f 375c af3f
00000040: 3e51 bb3f 429d 6d3f da86 a73f 4dee a33f
00000050: 2119 483f e26d d03f 3ddf ba3f 31d6 d93f
00000060: b7b6 f13f 30ce cd3f aec0 d53f 7df6 b13f
00000070: 349f f73f 43e4 9f3f f2f0 593f bd8c e53f
1.0821488 1.303778 1.3919923 1.5489126 2.2106192 1.4407333 1.2455065 1.8820304
1.6509829 1.6262786 1.4179008 1.2259393 1.4389759 1.2699733 1.2608906 1.3700017
1.4634168 0.9281808 1.3088028 1.2807099 0.78163344 1.6283534 1.4599377 1.7018491
1.8883885 1.6078548 1.6699426 1.3903347 1.934546 1.2491535 0.8513328 1.7933575

bn_2.bias f4 [32]
00000000: ba09 33be dc5b ecbe 6174 aabf 0ef1 e9be
00000010: 09e9 97bf 4f08 28bf 1633 29bf 66ab 4dbf
00000020: 2bcb 0ebf 8b1d 0dbf 562d bbbe a739 49bf
00000030: f72d 80be 97bd 8ebf 9239 2cbf e7c8 10bf
00000040: 19ca 0ebf 7674 14be 82a7 a2be ef27 82bf
00000050: d012 763e 9bc2 1cbf 3b64 8cbf 8015 efbe
00000060: fa4f 7ebf 6673 48bf cc54 3fbf c642 01bf
00000070: 8c5f 83bf 6355 c7be c7f8 4bbe cc93 69bf
-0.17484179 -0.46163833 -1.3316766 -0.45691723 -1.1867992 -0.6563768 -0.66093576 -0.8033966
-0.5577876 -0.55123204 -0.36558026 -0.78603595 -0.25035068 -1.1151608 -0.67275345 -0.5655655
-0.55777127 -0.14497551 -0.31768423 -1.0168437 0.24030614 -0.61234444 -1.0968088 -0.4669609
-0.99340785 -0.78301084 -0.74738765 -0.50492513 -1.0263534 -0.38932332 -0.1991912 -0.91241145

bn_2.running_mean f4 [32]
00000000: 3df3 6fc0 48ca dac0 e1d4 d4be 072a f9c0
00000010: 6dc8 a3c0 abe1 a9c0 fa71 0dc0 3d86 bec0
00000020: 598b 81bf c029 97c0 b27c a0c0 80c9 a7be
00000030: f15b 21c0 21cd a13e 9bd7 9cc0 858f a1c0
00000040: fcb7 9bc0 9ac1 2940 a536 4bbf cae3 713f
00000050: 2c80 50c0 e5f2 a9c0 e4ec 31c0 5ba0 efc0
00000060: e04c acc0 1291 2bc0 eaf6 27c0 cca4 15c1
00000070: f897 efc0 f83d dec0 ac1d ae40 f72c 14c1
-3.749221 -6.8371925 -0.41568664 -7.7863803 -5.118216 -5.3087974 -2.2100816 -5.9538865
-1.012065 -4.7238464 -5.0152216 -0.3277092 -2.5212367 0.31601813 -4.901319 -5.0487695
-4.866209 2.6524415 -0.79380256 0.94488204 -3.257823 -5.3109 -2.7800837 -7.4883246
-5.384384 -2.6807294 -2.6244454 -9.352734 -7.487301 -6.9450645 5.441122 -9.260978

bn_2.running_var f4 [32]
00000000: 2628 7041 e9ec 8e41 dc97 5341 f67c 2942
00000010: 7657 1c42 0916 a041 972f 8541 1977 3142
00000020: 0265 cb41 7794 d141 4110 c241 b778 3c41
00000030: 3c0c d641 72e1 7341 d729 9941 d485 c841
00000040: af21 8941 fb48 a141 1dce bf41 7121 a141
00000050: 2678 bd41 5e91 c041 2b30 5941 e87a 0a42
00000060: 9997 0142 f1cd 7f41 eedc 5f41 880a 1542
00000070: 3ce4 0f42 a2db aa41 969e 6341 54df b641
15.009802 17.865679 13.224575 42.372032 39.08541 20.01076 16.648237 44.366306
25.42432 26.197493 24.257936 11.779471 26.755974 15.24254 19.14543 25.065346
17.141447 20.160635 23.975641 20.141329 23.683666 24.07098 13.57426 34.620026
32.398045 15.987779 13.991438 37.260284 35.972885 21.357243 14.226217 22.859047

conv_3.weight f4 [64, 32, 3, 3]
00000000: 1b65 08bb 3f60 04bc 20b4 30be 75f8 64be
00000010: 7fcf 68bd 2afe 57be 7848 6a3d 2c6e 4e3e
00000020: 456c 233e 9435 df3d 0525 59bd e6b0 12be
00000030: 769d 89bb 37e5 a9bb e211 21be 9aab 73be
00000040: 5649 2f3d 5127 36be 88f2 bf3c 0684 f5bc
00000050: 4d6d 973d 4473 0f3e a1a6 633e b3de 023e
00000060: 2add 4cbe e8cf 223d e2f3 24be d4a0 56be
00000070: 5c2d 82bd 5b1e 013c b8e4 57be bcd1 b43d
00000080: cecb 2e3d 8e7b 85bd ab3e 05be f5f2 8b3c
00000090: 7ac5 023d b039 cabd 6652 5dbe 5b44 41bd
000000a0: 83fb 2cbd 475f c3bd ccc8 03bd 1af3 283c
000000b0: b23a 843d 302a 1cbe ed55 65bd 8a21 71bd
000000c0: 0963 f6bd 74ab 65be 4431 04be c999 0ebe
000000d0: 7867 46be d2c7 4bbe ee0f ec3c 9619 32be
000000e0: 78f2 253e 4939 36be c041 59be 4b1c 1bbe
000000f0: fc1d 11be 714b 8ebe f8ee 16be c9eb b6bc
00000100: cbf5 e7bd ddb0 68be 1c16 28bd a39b 15be
00000110: 5547 4dbe b6a9 353e 0863 663e e857 d73d
00000120: 7418 fcbd 0e73 38bd dfd9 063e be24 0f3d
00000130: c7be d6bd d548 56bd 1308 31be d560 13bd
00000140: 72d5 963d c502 12bd dfc8 42be 8feb 6abd
00000150: 87d7 e13d ff1c 2ebd 676b 0d3d 5bfd 883e
00000160: 8378 003d f858 11be 5ed5 363d 3f11 3f3e
00000170: 747f c53e 220d 10bd 2918 7fbe 00ad 2f3e
00000180: 71bb 1c3e 6fc4 4a3e bba8 9a3e 6711 9fbd
00000190: 435f 81bd 65d7 b23d 6e0c 09be 8ed1 a4bc
000001a0: 9ce7 5bbd 88f4 943d b6f1 c2bd 7935 10be
000001b0: 3288 ca3d d4c2 4e3d af49 31bc 9725 493e
000001c0: f492 2e3e 6ead 87b9 08e5 963d 520c 763d
000001d0: 72bf 1d3d 8cbe 1a3d 7d89 ec3c 9b3e 03bc
000001e0: 93b4 6d3e 16ba 8f3d c527 9f3d 08ab 013e
000001f0: 534f 78bd 1ba9 bcbc eab9 623e 5742 ad3d
00000200: ba7e 4b3e 3e8c a43d 85fa 2b3d b0e3 e7bc
00000210: c1d7 dabc 0f3e e5bd 1a17 acbd 4cc9 3abe
00000220: f32b 16be a4dd bfbd fa03 d33d b746 1abd
00000230: 91a3 0abe 0fef a43e d5c0 783e f402 a03e
00000240: 4456 bfbe f43a 55be 4f98 bdbe b0f4 10be
00000250: 1138 8bbe fb54 4ebe 1143 d73e 9412 553e
00000260: 6b02 2d3e 1c7c c93d 7b2c cd3d 922e cb3d
00000270: 0cd6 093e 9bda 203e b7ef 0cbe 66fc 2c3e
00000280: 2e23 b03d e33b 87be 3745 44be f81f 6dbe
00000290: 54af 5ebe ae60 5fbe 0a8b 93be 07bc 87be
000002a0: c5dd 47bd f23a 51be c03a 0dbe 21ac 483e
000002b0: 7baa 303d 9ddf 0a3e 6934 cf3d 6aed ff3d
000002c0: ec34 b93d 5170 3bbe add8 22be 834a 58be
000002d0: 3a01 abbd f277 bd3d 9c10 4d3d f200 adbc
000002e0: 8486 19be f4d7 9bbc b266 1d3e c6b6 46be
000002f0: 85ef 30be 4b45 e5bd 1d4f dd3d 2e31 313c
00000300: 7c19 d83d b2e9 da3d 4737 e5ba 6c06 3dbd
00000310: 8d25 8c3e bf3c 3b3e 73df 203d 75ed 2d3d
00000320: 354f 8f3d ffa2 50bd 17be aebd 8b9f 17be
00000330: 220e 16be 6dcb 0dbe f22c 7abe e420 73bc
00000340: 0dd5 6cbe 7bf2 56be 3f80 573e 536c 643d
00000350: 32e4 07bd 30d1 893e eca4 293e b5cb 1b3e
00000360: f1c2 bfbc 8c67 f93d 4940 473e 37fc 4bbc
00000370: d61d 623e 5d04 563d 5843 50be 5913 c0bd
00000380: 976a 573e 24a9 a6bd 26cd 0abe 7712 1ebe
00000390: 74fa bebe 5b72 7bbe a801 76be abf0 3cbe
000003a0: debf 6cbe 5154 4abc a11d 4d3e c7e5 873e
000003b0: 64e2 f73b 47e4 93bc 6cf5 31bd 81de 31bc
000003c0: 9163 ac3d e91f 83bd 455b 16be 745e 18be
000003d0: 3a6e 51bd 55c1 d9bd fe2a 1e3e 7de2 b8bd
000003e0: bc1c 6abc 5468 cdbd 88e7 72bd 8f04 57be
000003f0: d9a3 0bbe 9c6b 3bbe 75dd c0bd 2a6c 57bb
-0.0020812217 -0.0080795875 -0.17256212 -0.22360404 -0.05683851 -0.2109305 0.057198018 0.20159215
0.1595927 0.10898891 -0.05301382 -0.14325294 -0.004199679 -0.0051847952 -0.15729478 -0.2379593
0.042794548 -0.17788436 0.023431078 -0.02997018 0.07393894 0.14008814 0.22231533 0.12780266
-0.20006242 0.039749056 -0.16108659 -0.20959789 -0.06356308 0.007880772 -0.21083343 0.08829066
0.042674832 -0.06517707 -0.13012187 0.017083624 0.03192661 -0.09874284 -0.21613464 -0.04718433
-0.042232048 -0.09539657 -0.032173917 0.010311866 0.06456508 -0.15250468 -0.05599015 -0.058869876
-0.12030608 -0.22428685 -0.12909418 -0.13925852 -0.19375408 -0.19900444 0.02881619 -0.17392573
0.16205776 -0.1779529 -0.21216488 -0.15147512 -0.14171594 -0.27791932 -0.14739597 -0.022329228
-0.11326178 -0.22723718 -0.04103671 -0.14610152 -0.20046742 0.17740521 0.22498715 0.10514814
-0.123093516 -0.0450316 0.13169049 0.03494715 -0.10485607 -0.05231555 -0.17288236 -0.035981018
0.0736493 -0.035647172 -0.19021939 -0.057353552 0.11027437 -0.04250812 0.034526255 0.26755795
0.03136493 -0.14194095 0.044637077 0.18658923 0.38573802 -0.035168774 -0.2491156 0.17155838
0.15305878 0.19801496 0.30206856 -0.07766991 -0.06316998 0.087324895 -0.13383648 -0.020119455
-0.053687677 0.07273203 -0.09518759 -0.14082898 0.098892584 0.05047877 -0.01082079 0.19643246
0.17048246 -0.00025878422 0.07367903 0.060070343 0.038512655 0.037779376 0.028874153 -0.008010532
0.23213415 0.07017915 0.07771257 0.126629 -0.060622524 -0.023029855 0.22141233 0.08459919
0.19872561 0.080345616 0.04198696 -0.028306812 -0.026714208 -0.11193477 -0.08402844 -0.18240851
-0.14665203 -0.093684465 0.10303493 -0.037665095 -0.13538958 0.32213637 0.2429231 0.31252253
-0.37370503 -0.2082327 -0.37030265 -0.14155841 -0.27191213 -0.20149605 0.42043355 0.20807868
0.16895454 0.09838125 0.100182496 0.09920992 0.13460559 0.15708391 -0.13763319 0.16893157
0.0860046 -0.26412877 -0.19167028 -0.23156726 -0.2174657 -0.21814224 -0.28817016 -0.2651064
-0.04879548 -0.20432642 -0.13791943 0.19596912 0.043131333 0.13561864 0.10117418 0.12496455
0.09043297 -0.18304564 -0.15902968 -0.21122174 -0.08349843 0.092513934 0.050064668 -0.021118615
-0.1499272 -0.019023873 0.15371206 -0.1940566 -0.1727887 -0.11194857 0.10806105 0.010814948
0.10551736 0.10689105 -0.0017487787 -0.046148703 0.273724 0.18284892 0.039275598 0.042462785
0.069975294 -0.050936695 -0.085323505 -0.14806955 -0.14653829 -0.13847132 -0.24431208 -0.014839385
-0.23128147 -0.20990936 0.21045016 0.05576737 -0.03317661 0.2691741 0.16566819 0.15214427
-0.023408385 0.12177953 0.19458117 -0.012450269 0.22081694 0.052250255 -0.2033819 -0.0937869
0.21036755 -0.0813773 -0.1355482 -0.15436731 -0.37300456 -0.24555342 -0.2402407 -0.18451183
-0.23120067 -0.012349204 0.20030834 0.26542494 0.0075648297 -0.018053187 -0.043446943 -0.010856272
0.08417428 -0.06402571 -0.14683254 -0.14879781 -0.05113051 -0.10632578 0.15446088 -0.09027574
-0.014289077 -0.10029665 -0.059302837 -0.20997833 -0.13636722 -0.18302768 -0.094172396 -0.0032870867

conv_3.bias f4 [64]
00000000: bb70 9a3c 4a2e ddbc 1863 3a3c 9417 b7bc
00000010: 6dc0 fe3c 1ea2 d1bc 8802 033d adf8 903c
00000020: 65ab c4bb d5cc 0c3d a5fd 87bc b65a 06bb
00000030: b3b7 183c 7b78 a73c 6ca1 de3c 06f3 06bd
00000040: 700c 013c 369d cc3c dc1a 41bc a1b6 0f3c
00000050: 8deb 1138 ba09 27bb bea4 48bb 250c 06bd
00000060: 8365 b8bc efe1 ce3c fbee 0a3d 4b21 9fbb
00000070: 750b ec3c 0f37 aabc c58b e93c 4310 9f3c
00000080: 0878 303c 3a78 faba 2573 63bb 730f 883c
00000090: d864 b3bb 4c80 b9bc 7308 b53c f0e8 b8bc
000000a0: 0c5e 88bc edfa 0c3d 92d9 343c 8b01 833c
000000b0: d9ce d63c e87d 60bc dbbe 0c3d ec6f c2bc
000000c0: c9a4 123b 8e9e d0bc ca68 e5bc caea 853b
000000d0: dac7 9839 dca3 ba3c f6de dabc e16d 4a3c
000000e0: c82a b0bb 555c f43b a945 d9bb 0322 ff3b
000000f0: 38af e538 06af fbbc b00f 00bd 8978 10bc
0.018852582 -0.026999611 0.011376165 -0.02235011 0.031097615 -0.025589999 0.031984836 0.017696703
-0.006001877 0.03437503 -0.01660044 -0.0020500845 0.009321141 0.020443192 0.027176581 -0.03294661
0.0078765005 0.024977308 -0.011786189 0.0087715695 3.4790068e-05 -0.0025487975 -0.0030615772 -0.032726426
-0.022509342 0.025254218 0.033919316 -0.0048562638 0.028814057 -0.020778207 0.02850903 0.019416934
0.010770805 -0.0019109317 -0.0034706083 0.01660893 -0.005474668 -0.022644185 0.022098755 -0.02257201
-0.016646408 0.03441899 0.011038201 0.015991947 0.02622168 -0.013701893 0.0343617 -0.02373501
0.0022376052 -0.02546623 -0.028004069 0.004086827 0.000291406 0.022783212 -0.026717644 0.012355299
-0.0053761937 0.007457296 -0.0066306186 0.007786037 0.00010952208 -0.030723106 -0.03126496 -0.0088178

bn_3.weight f4 [64]
00000000: af3d 1640 4b33 2e40 8f92 de3f f9b9 1940
00000010: d817 3340 462a 0340 4087 2740 9345 1040
00000020: 243e 1e40 9a1e e23f ed88 2640 2e66 1c40
00000030: c52d 1b40 ffa1 df3f a3bc 0740 dca4 1e40
00000040: ddd7 3140 ddc9 0740 7123 1d40 3bca 2540
00000050: b992 1640 b451 1540 ed39 0c40 3983 1340
00000060: 132d 1540 4c53 0f40 9448 1a40 2a7f 2640
00000070: 2f6b 1d40 1166 fe3f 90fc cd3f 4cbd 0140
00000080: 7af6 2640 f6c0 3b40 1f44 5540 262c 4740
00000090: 62dc ec3f 1634 0740 00ad 2440 f1e7 2540
000000a0: 0150 f93f 9d91 0b40 7f3f 1c40 155e 0740
000000b0: da8f 0c40 75d7 1840 5c6f 3e40 e724 0940
000000c0: 196b 0e40 64d4 2140 03ba 1140 d860 2040
000000d0: 9ea3 4940 835c 1340 8fb1 ff3f 9c31 3740
000000e0: bbfe 3240 0305 1e40 a4b3 1740 0f5b 0b40
000000f0: ca60 2440 a747 e43f 7649 2840 8691 0a40
2.3475149 2.7218807 1.7388476 2.4019759 2.7983303 2.0494552 2.61763 2.2542465
2.4725428 1.7665589 2.6021073 2.4437366 2.4246686 1.7471312 2.1208885 2.4788122
2.7788002 2.1216958 2.4552882 2.5904682 2.3527052 2.3331118 2.1910355 2.3048842
2.330876 2.239459 2.4106798 2.6015115 2.459667 1.9874898 1.6092701 2.0271788
2.6087937 2.9336524 3.3322828 3.1120696 1.8504755 2.112554 2.573059 2.5922816
1.947754 2.1807625 2.4413755 2.1151173 2.19628 2.3881505 2.9755468 2.1428773
2.2252867 2.5285883 2.2769783 2.5059109 3.1506114 2.3025215 1.9976062 2.862403
2.7967975 2.469056 2.3703394 2.1774328 2.5684075 1.7834367 2.6294837 2.165132

bn_3.bias f4 [64]
00000000: 6351 89bf 8367 b5bf 3772 38bf 727c 32bf
00000010: e7fc a3bf d071 37bf 9289 89bf 7a0f 7cbf
00000020: 16b9 bebf bda1 1bbf 0efa 9ebf f052 eabe
00000030: a0f4 b1bf e8fe 24bf fe60 5bbf 37af 62bf
00000040: 027d 8ebf 2dfe 88bf 02f4 6fbf 2e48 9fbf
00000050: af07 58bf 1a47 89bf 8c0e 62bf 98d1 7cbf
00000060: 5bcf 84bf d51b 9fbf 7b0b 9ebf c571 94bf
00000070: b712 afbf ffef 62bf afb9 43bf c3c2 5bbf
00000080: e384 95bf b2ff ebbf a45b f8bf 6029 01c0
00000090: da4c 25bf 5155 49bf b703 abbf 8f73 82bf
000000a0: 891e 1dbf 5ddc 56bf c22d 67bf 3c25 82bf
000000b0: af0f 5fbf d5ec 7fbf 15f9 7bbf c55d 6dbf
000000c0: fbc5 8bbf 897f a9bf a034 8cbf 2d97 9cbf
000000d0: d81b d3bf 056f 9fbf f6f6 4bbf e2d2 babf
000000e0: f007 58bf ed27 66bf 8f56 70bf 61cb 2fbf
000000f0: df53 89bf 675f 45bf 22e2 9bbf f2ce 67bf
-1.0727962 -1.4172214 -0.7204928 -0.6972114 -1.2811555 -0.7165804 -1.0745108 -0.98461115
-1.4900234 -0.6079367 -1.2420061 -0.457664 -1.3902779 -0.64451456 -0.85694873 -0.88548607
-1.1131899 -1.0702568 -0.937317 -1.2443902 -0.84386724 -1.0724823 -0.88303447 -0.98757315
-1.037578 -1.2430369 -1.2347254 -1.159722 -1.3677586 -0.88647455 -0.76455206 -0.8584406
-1.1681179 -1.8437407 -1.9402966 -2.0181503 -0.6457039 -0.7864581 -1.3360509 -1.0191516
-0.6137472 -0.8393 -0.90304196 -1.0167613 -0.87133306 -0.9997075 -0.98426944 -0.92721206
-1.0919794 -1.3242046 -1.095356 -1.2233635 -1.6492872 -1.2455755 -0.7967371 -1.4595606
-0.8438711 -0.8990467 -0.9388208 -0.68669707 -1.072872 -0.770987 -1.2178385 -0.9055015

bn_3.running_mean f4 [64]
00000000: 7815 debf 4092 29bf 264f ed3e 3322 07c0
00000010: 6a61 0dc0 ce40 65bf 5f24 27c0 ad76 1ebf
00000020: 13be c3bf a7c1 3abf db04 a1bf 73c6 debf
00000030: 52d8 26c0 51d9 63be 4373 8ebf 2d78 75be
00000040: 345e 03bf 7bbb a23e 2eb7 503d 7e47 44c0
00000050: 60ac acbe 2edd 4a3f 5c94 02c0 ed56 2abf
00000060: 09ee fcbf 52f0 183f 06d0 07bf 4e4e 32c0
00000070: f273 e63e a85f c63e 9f06 bc3e b06a a53e
00000080: 3e7f 9ebf 30cf 1ec0 4ab2 26c0 56cb bebf
00000090: a751 27bf 7ee3 cfbd 4118 f6bf 3a10 73bf
000000a0: 7fdc b5bf 0ef2 1b3f 5c39 28be 880f cabf
000000b0: 4df6 57bf 1b49 53c0 40bb 25c0 4f51 b43f
000000c0: 8e24 febf ec69 babe b061 92be 701b 60c0
000000d0: 62ea 3dc0 bb20 74bf aa3b 38be fd6b acbf
000000e0: ada3 73bf 2341 35be f7b2 50c0 e35d e53d
000000f0: 4cc6 5fc0 2c47 abbe b20a 84c0 b2c3 c4bf
-1.7350302 -0.66238785 0.46349448 -2.1114624 -2.2090707 -0.8955201 -2.611595 -0.61899835
-1.5292381 -0.7295174 -1.2579607 -1.7404312 -2.6069531 -0.22250868 -1.1128925 -0.23971625
-0.5131562 0.3178366 0.050955944 -3.0668635 -0.33725262 0.79243743 -2.0403051 -0.6653889
-1.9760143 0.597417 -0.53051794 -2.7860293 0.45010334 0.38744855 0.36723801 0.3230796
-1.2382581 -2.4813957 -2.604632 -1.4905803 -0.65358967 -0.101508126 -1.9226152 -0.94946635
-1.4207915 0.6091622 -0.16428131 -1.578599 -0.843602 -3.301337 -2.5895538 1.4087313
-1.9854906 -0.36408937 -0.28590155 -3.5016747 -2.9674306 -0.9536244 -0.1799151 -1.3470455
-0.95171624 -0.17700629 -3.2609231 0.11199548 -3.496478 -0.33452737 -4.1263056 -1.5372221

bn_3.running_var f4 [64]
00000000: 59f4 3040 018b 4040 7d88 ef3f 4fc8 2c40
00000010: 9f10 3140 a66e 0340 34bd 4740 ad53 1d40
00000020: 7717 1740 db2c bb3f b8e0 2940 c5fb 6440
00000030: f6ca 1b40 5ae0 de3f d280 0c40 5bb6 4040
00000040: 4859 5740 f4cb d43f 3a47 3240 9092 6040
00000050: 5b4a 0e40 e5e0 e73f 988a 0c40 c7ef 4e40
00000060: ad40 1040 a0fb fb3f ea36 0540 7ffb 4c40
00000070: cd26 1740 fef1 0f40 c2c6 9d3f 60b8 1940
00000080: 723e 4540 f71e 8940 481f b740 dc63 7240
00000090: 6624 9c3f 55d6 2c40 a735 2740 a331 5140
000000a0: f192 0640 ace2 1640 f924 4940 bf3e f33f
000000b0: e2b3 f83f df7a 3040 d161 bb40 152d 0340
000000c0: 3c15 0740 a9d7 3040 7e47 0640 fec2 4940
000000d0: 3602 b940 321d dd3f dd39 b13f 5f96 4940
000000e0: 4d84 6c40 8968 0f40 d582 2440 51e0 2740
000000f0: d8ba 4c40 00ad a03f fa96 5a40 d6fd 2b40
2.7649138 3.0084841 1.8713528 2.6997259 2.7666395 2.0536284 3.120923 2.4582322
2.3608072 1.4623064 2.6543407 3.5778668 2.4342628 1.7412217 2.1953626 3.01113
3.3648243 1.6624742 2.7855973 3.5089455 2.2232883 1.8115507 2.195959 3.2333848
2.2539475 1.9686165 2.0814767 3.20285 2.3617432 2.249145 1.2326281 2.4018784
3.0819364 4.28503 5.7225685 3.787345 1.2198608 2.7005818 2.6126497 3.2686546
2.1027186 2.357585 3.1428816 1.9003524 1.9429896 2.7574995 5.8556905 2.0496266
2.110671 2.7631629 2.0981135 3.1525264 5.78152 1.7274535 1.3845783 3.149803
3.695575 2.2407553 2.5704854 2.6230662 3.198904 1.2552795 3.4154649 2.687368

pred.weight f4 [16, 64, 1, 1]
00000000: 827a f3be d14e bdbf f457 ab3d 2639 023f
00000010: 3921 89bf 6e84 bc3e 2ecf c1bf 2ff9 b63e
00000020: cbc1 0dbf ec8e 31be 7921 82bf 4218 bd3f
00000030: 4937 29bf 1e71 373f c887 3c3f fe6a db3e
00000040: 0747 5e3f 1b17 fc3c 53c6 443f ccf9 07bf
00000050: 0c3b 5a3f 74e1 66be 63e5 75bf b7e7 783e
00000060: dd74 953e b82e 09be 505d c23d 3426 d73e
00000070: c8b2 3e3e 2015 20bf 7767 a73e 4c00 ebbe
00000080: 19f4 b73e 5885 1dbf 9f9a 30bf 2a47 4dbe
00000090: 7c7f 703f 163b bebe 78a7 5fbc 575a 9b3f
000000a0: 908f 6b3f 55fb ccbe 2a1a 1dbf 07a0 9e3b
000000b0: 360e 123f c00d 8abf 7d70 a9bf 5663 a93e
000000c0: 635d 543e a652 e43e 2f47 a4be 69da 76bf
000000d0: d455 88bf 029c 00bf e627 2a3f b756 2ebf
000000e0: ad94 d33f 754d cebd 8e44 a3bf 528b 82be
000000f0: 9d07 fc3e 4b96 ddbc 3adc 94bf 0f6b 4fbe
00000100: 2173 e3be efdc 01bf 20ba 6b3b 967c 42bf
00000110: fec2 3ebf 0b56 e3be 50ab 1dbf 5c40 cbbb
00000120: 4b32 e13e b3e2 953e 263d 833e 3c8e c53f
00000130: b357 01bf 76cc 6cbf d3c2 213f 6f93 0d3f
00000140: 72d0 c83e 6270 2abe 7fda 933f 0f80 cb3e
00000150: 7780 5cbe 6bdb 84be 97e0 db3e be59 16bf
00000160: 8f2e 383f 67e8 9ebf 5ecb 09bf 0968 6c3e
00000170: 36d4 debe bce2 74bd 7d81 2a3e 71d5 273e
00000180: b720 94bf 4ffd c33e 1bdb 863f d0b0 0140
00000190: 2eda 493f 2df9 333e 64f1 b0be 84cb e0bf
000001a0: 8842 213f d1af bdbe 06e6 aa3f d973 32bf
000001b0: fb9c 953e d079 b3bf d987 92bf 8460 67bd
000001c0: 5099 d5be f863 6f3f e873 143f 3151 89bf
000001d0: e916 8bbf 5a87 943e eac3 143f a336 8f3e
000001e0: 786f 583f c526 223e c715 44bf 06bf 12bf
000001f0: 8891 933f f28c 273e 4ac1 e0be d4e4 693e
00000200: 66c1 913f 898c 993f a357 473f e223 76bf
00000210: c47a a5bf 1b6d 293f 9875 4c3f 070f 42be
00000220: 5419 0bbf aa9b f43e 04c6 7abf 0850 82bf
00000230: a51a 033e e7a9 1d3f a51e 8a3e 82a0 223e
00000240: a97d 4bbf 131b 7b3e 905d 933f e3e9 91bf
00000250: 01bd 013d 4c46 81bf 7d3a 34be 7f92 0a3e
00000260: 060a 28bf 5951 b2be 2194 553f 9aa5 dc3d
00000270: d9dd bd3e 85d6 623d ef6f 463e 9f7c d03e
00000280: d860 05bf 5584 a73d 6319 b2bf cf91 973e
00000290: fc20 ea3e 44e2 583f d912 da3e 237b 493f
000002a0: 16c9 61bf 6843 af3d 8771 403f ce67 823f
000002b0: cfaa 0abf 36d7 8a3e 632b 253f f77f 1cbf
000002c0: 5c72 573d 556b 6fbe 6894 f53f 9189 5fbf
000002d0: 6462 2440 6379 00bf d927 163f be0f 0840
000002e0: 1333 a3bf 3127 45bf 42f1 96be 1516 83bf
000002f0: 9821 94bf 1245 60be a6d7 a9bf 7352 b7bd
00000300: 5ea8 c9be fa1d 32bf ba6a a43f 8304 9b3f
00000310: 6cb4 983f b6c7 87bf 091d f2be 31cf 153d
00000320: ba62 cc3d b5cc 563f a23e 2a3e 2f09 69bf
00000330: 8a66 a1bf 1794 d73e c7cd 87bf d4d6 d1bf
00000340: 89fd 39bf 4ab5 543e a6e3 59bf 5e37 41be
00000350: 5b68 e53e 964c c23f b4ed 203f c260 40be
00000360: 07e3 8cbf 3525 503e c00a 79bf ffb1 c4be
00000370: de2b 94bd bef4 963f f06f 18be b220 803e
00000380: 1306 e8bc 4ee1 69bf 3ae6 a83e 9739 a4bd
00000390: 3613 463f 0e08 03be c902 9cbe f505 d5be
000003a0: 6249 373e 3004 eb3e 4a21 143e 1702 f4be
000003b0: 75a9 c03f ecd4 4dbf ca5c 0d40 df84 39bf
000003c0: 8bbe 9dbe 5a14 d33e b319 27bf f906 763f
000003d0: a4f4 c8be e746 3fbf 30a7 2cbf ad32 8c3e
000003e0: ed5e a4be 3571 aa3f 7ddb abbe d519 7abc
000003f0: 572e 613f f541 933f 43b1 20bf 0903 86be
-0.47554404 -1.4789678 0.08366385 0.5086845 -1.0713264 0.36819786 -1.5141351 0.35736987
-0.5537383 -0.17339677 -1.0166465 1.4773028 -0.66099983 0.7165698 0.73644686 0.42855066
0.8682713 0.030772736 0.7686512 -0.53115535 0.8524635 -0.22546941 -0.9605314 0.24307142
0.29190722 -0.13396728 0.09490454 0.42021334 0.18622887 -0.62532234 0.32696125 -0.45898664
0.3592842 -0.6153159 -0.68985933 -0.20046678 0.93944526 -0.37154454 -0.0136507675 1.2136945
0.92015934 -0.400355 -0.6136805 0.004840854 0.57052934 -1.0785446 -1.3237454 0.330836
0.20738749 0.44594306 -0.3208556 -0.9642702 -1.0651193 -0.5023805 0.6646713 -0.68101066
1.6529747 -0.100733675 -1.2755296 -0.25496918 0.49224558 -0.027049204 -1.1629708 -0.20255683
-0.44423774 -0.5072774 0.0035969093 -0.75971353 -0.74516284 -0.44401583 -0.6158953 -0.0062027406
0.43983683 0.2927452 0.2563259 1.5434031 -0.50524443 -0.9249948 0.63187903 0.5530309
0.3922153 -0.16644433 1.1551055 0.39746138 -0.2153338 -0.25948653 0.42944786 -0.58730686
0.7194604 -1.2414674 -0.5382594 0.23086561 -0.4352128 -0.059786543 0.16650958 0.16390015
-1.1572484 0.38279197 1.0535616 2.0264168 0.7884854 0.17575522 -0.34559166 -1.7562108
0.62992144 -0.370482 1.3351448 -0.6970802 0.2922133 -1.4021549 -1.1447707 -0.05648853
-0.4171853 0.93511915 0.5798936 -1.0727903 -1.0866367 0.29009515 0.5811144 0.27971372
0.8454509 0.15835102 -0.7659573 -0.5732273 1.1528788 0.1636236 -0.43897468 0.22841197
1.1387146 1.1996013 0.778681 -0.961485 -1.292809 0.66182107 0.79866934 -0.18951045
-0.5433552 0.47775012 -0.979584 -1.0180674 0.12803133 0.61587375 0.26976505 0.15881541
-0.7948862 0.24522047 1.1512928 -1.1399502 0.03167439 -1.0099578 -0.17600437 0.13532446
-0.65640295 -0.34827688 0.8342915 0.107737735 0.3708332 0.055380363 0.19378637 0.40720078
-0.52100897 0.08179537 -1.3913997 0.2960343 0.4572829 0.84720254 0.42592505 0.78703517
-0.8819746 0.085577786 0.7517323 1.0187929 -0.54166883 0.27117318 0.6451933 -0.6113276
0.052599296 -0.23380788 1.9185915 -0.87319285 2.5685053 -0.5018522 0.5865455 2.1259608
-1.2749962 -0.77012926 -0.2948094 -1.0241114 -1.1572752 -0.21901348 -1.3268936 -0.08951273
-0.39386266 -0.6957699 1.284507 1.2110752 1.193006 -1.0607822 -0.47287777 0.036574546
0.09979768 0.8390611 0.16625455 -0.9102964 -1.2609417 0.4210517 -1.0609673 -1.6393685
-0.7265249 0.20772281 -0.8511299 -0.18868777 0.4480618 1.5179622 0.62862706 -0.1878691
-1.1006783 0.20326693 -0.9728203 -0.3841705 -0.072349295 1.1793439 -0.14886451 0.25024945
-0.028323209 -0.9135941 0.3298815 -0.08018797 0.77373064 -0.12796041 -0.30470875 -0.41606107
0.17899087 0.45901632 0.14465824 -0.47657844 1.5051714 -0.8040302 2.2087884 -0.7246837
-0.30809435 0.41226465 -0.6527359 0.9610439 -0.39249146 -0.74717563 -0.6744261 0.27382413
-0.32103673 1.3315798 -0.33565894 -0.015264948 0.87961334 1.1504503 -0.6277048 -0.2617419

pred.bias f4 [16]
00000000: 3b2d 4c3f 0fa8 10be 8d9c fabd 3b97 013e
00000010: 01a7 a83e 75de efbd d6fd 3ebd f4a7 c4bd
00000020: 712f 1bbf 4816 07be 6084 523d e4d6 94be
00000030: 5505 a63e 655a 9bbe bbff 3a3e c6af 3bbd
0.79756516 -0.1412661 -0.12236891 0.12655346 0.32939914 -0.11712352 -0.046628796 -0.09602347
-0.60619265 -0.13192093 0.051395774 -0.290702 0.32425943 -0.30342403 0.18261616 -0.045821927
