Kirsten_Ziman_HW2/improved_state_dict.pt (torch, 411483 bytes, 26 tensors)

conv1.weight f4 [16, 3, 3, 3]
00000000: 1436 f5bd 7191 3c3d 7347 e8bd 18b9 40be
00000010: d3a0 893d a5c8 803d 6222 e63e f327 f43e
00000020: b867 823e 9acc c9be 8a0f f5be 34ba 19be
00000030: d030 3cbf 1ea1 c5be 480b a0bd 9768 a53e
00000040: e80f 133f bb04 2d3f b3f9 a1bf d0a0 9fbf
00000050: dd16 d8be 6e02 47bf f8e9 b6be 1a57 e83e
00000060: 3228 033f 1af7 923f b69d c53f 2f54 1cbf
00000070: c353 67bf 3b73 4bbf 9ee3 f0be 0d5e 37bf
00000080: a440 61bf 81fa 23be 57ed ffbe f10c 20bf
00000090: 4165 6bbe aa2a 0dbc 0923 29bd e915 483e
000000a0: bc38 123e b132 b53b 9be1 763d 5a15 1cbe
000000b0: 8d94 84be d431 483e 4ddd 293f 8681 043f
000000c0: 519e 343f 25b5 813f 2911 603f eede 263f
000000d0: 04e9 373f 02f2 ee3e 5329 0bbf ec00 9cbf
000000e0: 11d0 32bf a735 39bf b765 98bf c5af 35bf
000000f0: 3c08 3f3f ed2b c73e 3436 cd3e 7a19 d83e
00000100: 2e5a 313f 85da 183f 0180 8b3e 7bb0 ec3e
00000110: 8c80 fb3e 3725 cf3e 38dd f63d f3f6 8d3d
00000120: 1f1a b23e 9a40 803f 4b2d 203f 1d5f 23bd
00000130: ad03 8c3e 56eb 5ebe c487 06bf 96b5 1abf
00000140: d4b8 6cbf 7301 263f 080d 293f 2687 9f3e
00000150: 3ca1 e33d 1b03 edbd a017 52be b46f 3bbf
00000160: 838f 79bf 4f7e 78bf c1ec 513f c4a2 a33f
00000170: c9e3 993f e0f6 0c3f e444 d93e 6038 9c3e
00000180: 2dac 8cbe 200a 20bf 621a 49bf 56c6 2a3e
00000190: 46b1 673f 57e4 853f 32bc 8cbe 278d 88be
000001a0: 93c8 68be 30a9 3ebf 2253 a4bf 6d06 8ebf
000001b0: cdf0 b43f b95a babf b817 12be bff9 1340
000001c0: c60e 24c0 8280 f63e 9dc4 ba3f 3ce6 c0bf
000001d0: e787 43be 3e6e ae3e 341b ccbf e722 a53f
000001e0: e720 853f b4e9 37c0 8627 ff3f 844f 1b3f
000001f0: c705 dfbf e19a af3f 72eb 1e3e 3c26 babf
00000200: 90b8 a63f 2002 563f 1143 32c0 ef77 0e40
00000210: 9224 abbc 3755 fcbf f5d8 b93f cf06 e5bd
00000220: 61e9 6c3d 4752 e73c 90cc e03e 526c 053f
00000230: 9384 c73e 71c2 573f cb35 5a3f b1d8 223f
00000240: 5eda 523d d815 20bf a06c 26bf edf4 80be
00000250: e7ac b3bf 9e90 d5bf 77ba 98be fc0c a5bf
00000260: 88c5 99bf 1e65 c63f 4f90 5e3f af52 fa3d
00000270: 2d77 ab3f ea57 023e 839f e7be 9acc 2d3f
00000280: 24ff 7cbe a8ca 1bbf 3565 ebbf 94c8 00bf
00000290: 2081 813f adc5 cdbf df42 bc3c 61e9 d03f
000002a0: 579b 27bf f26c 2d3f 63e3 c23f 29b4 e6be
000002b0: 7ffe a43d 13d6 d43e 7bad 5ebf ab56 43bd
000002c0: d315 ee3e 60be c5be 818e cb3c 3388 943b
000002d0: cb66 7c3f 8f5b 383f dca7 553e 1586 043e
000002e0: d478 ee3d 75aa 0dbe 17af 82be add7 0bbf
000002f0: cbe7 6ebf 311a 9f3f 66ce c83f a248 663f
00000300: 6b5c debf aa72 12c0 c3f6 c9bf 005d 0b3f
00000310: ed4a 163f 9ec7 3c3f d3af 533f 9979 a23f
00000320: e0cf 1e3f 2624 cabf b9b8 0bc0 ad02 9ebf
00000330: 4af9 483f 48e3 6c3f eab0 2d3f b57c 543f
00000340: e291 933f 9f0e 943e 8960 cebf 4737 04c0
00000350: 0a97 97bf bc62 543f 3ddc 673f 1fee 2f3f
00000360: f972 5d3e ff9b cbbf 5865 a93f 3987 a8bf
00000370: a3ee a1bf d79b f33f 3d1e d43f f888 2540
00000380: 2b66 53c0 2125 3f3e b798 c8bf 3274 9f3f
00000390: 0b5c dcbf 1eb0 b3bf 05db ea3f 84db bd3f
000003a0: fbda 2440 3235 36c0 c8a2 253f 3a6a 83bf
000003b0: 6e28 8a3f c881 b8bf 6d4d a4bf 2df6 d23f
000003c0: e9fe 613f ff25 0840 6af5 26c0 85b6 b63e
000003d0: abff 04be 1154 cebe 00b4 7dbd 7126 7abf
000003e0: f7c7 19bf 75e0 633e d45e 8dbe 0d5c 113e
000003f0: 73f8 6b3e f8a7 7bbd efb0 e5bd ff57 a3be
-0.11973205 0.04603714 -0.11341753 -0.18820608 0.06720128 0.0628827 0.44948107 0.4768673
0.25469756 -0.3941391 -0.47863418 -0.15012437 -0.7351198 -0.38599485 -0.07814652 0.32306358
0.57446146 0.67585343 -1.2654327 -1.2470951 -0.42204943 -0.7773808 -0.3572538 0.45378953
0.5123321 1.148166 1.5438755 -0.61065954 -0.90362185 -0.794727 -0.47048658 -0.71627885
-0.8798926 -0.16013528 -0.49985763 -0.62519747 -0.22987844 -0.008616129 -0.041293178 0.19539608
0.14279455 0.0055297245 0.060273748 -0.1524252 -0.25894585 0.19550258 0.66353303 0.5176014
0.7055407 1.0133406 0.87526184 0.65183914 0.7183993 0.46669012 -0.5435993 -1.2187781
-0.69848734 -0.7234749 -1.1906041 -0.7097133 0.7462194 0.389007 0.40080416 0.42206937
0.6927823 0.59708434 0.27246097 0.46228394 0.4912151 0.4045808 0.12053913 0.069318675
0.34785554 1.0019715 0.6256911 -0.03988563 0.27346554 -0.21769461 -0.5255091 -0.6043333
-0.92469525 0.6484596 0.6603551 0.31157798 0.111147374 -0.11572858 -0.20516825 -0.7321732
-0.97484607 -0.9706773 0.8200188 1.2784047 1.202264 0.550642 0.42435372 0.3051176
-0.2747511 -0.6251545 -0.7855588 0.16677222 0.9050487 1.0460309 -0.27487332 -0.2667019
-0.22732763 -0.7447691 -1.283787 -1.1095711 1.4135987 -1.4558936 -0.1426686 2.3121183
-2.5634017 0.4814492 1.4591252 -1.5070262 -0.19094811 0.34068483 -1.5945802 1.2901276
1.0400666 -2.873639 1.9933937 0.60668206 -1.7423638 1.371914 0.15519503 -1.4542918
1.3025074 0.8359699 -2.7853434 2.2260702 -0.020891462 -1.9713506 1.4519335 -0.11182939
0.057839755 0.028237475 0.4390607 0.5211841 0.38968334 0.8428107 0.8523833 0.63611895
0.051477782 -0.6253333 -0.650095 -0.25186864 -1.4037141 -1.6684759 -0.2982976 -1.2894588
-1.2013407 1.5499609 0.8693895 0.12222802 1.3395745 0.12728849 -0.45238885 0.6789032
-0.24706703 -0.60856104 -1.8390261 -0.5030606 1.0117531 -1.6075951 0.022981105 1.6321222
-0.65471405 0.6774436 1.5225643 -0.45059326 0.08056354 0.41569576 -0.8698346 -0.047690075
0.46501026 -0.38621807 0.024848225 0.004532838 0.9859435 0.7201471 0.20864815 0.12941773
0.1164414 -0.13834555 -0.25524208 -0.5462597 -0.9332244 1.2429868 1.5687988 0.8995458
-1.7371954 -2.2882485 -1.5778431 0.5443878 0.5870808 0.7374209 0.8269016 1.2693359
0.6203594 -1.5792282 -2.1831496 -1.2344567 0.78505385 0.92534304 0.67848074 0.8300279
1.1528895 0.28917405 -1.612321 -2.0658739 -1.1842968 0.82963157 0.9057043 0.6872272
0.2162589 -1.5906981 1.3234053 -1.3166267 -1.2650951 1.9031934 1.6571728 2.586485
-3.3031108 0.18666507 -1.5671605 1.2457335 -1.7215589 -1.4038122 1.834809 1.4832616
2.5758655 -2.8469968 0.6470151 -1.0266793 1.0793588 -1.4414606 -1.2836128 1.6481377
0.8827959 2.127319 -2.608729 0.35686126 -0.12988155 -0.40298513 -0.06193924 -0.97714907
-0.6007075 0.22253592 -0.2761141 0.14195271 0.23043995 -0.061439484 -0.11215388 -0.31903073

conv1.bias f4 [16]
00000000: 3e78 c83d 09dc f73b dc6a 9dbd cf3e 29bd
00000010: d54c ce3c 2f0d b4bd e2ae 6a3d b46c d6bd
00000020: ed0a e3bd 837e e5bd 15a7 bfbc 4cd2 9e3d
00000030: e98b dfbd d850 c43d aff5 3cbd 9959 0a3d
0.097885594 0.007564072 -0.076863974 -0.041319665 0.02518312 -0.08791577 0.057295687 -0.10469952
-0.11086068 -0.11205771 -0.0233951 0.07754955 -0.109153576 0.09585732 -0.04613274 0.033776853

bn2.weight f4 [16]
00000000: 9ec1 c23f aa25 5c3f c7c2 2d3f 80ec b23f
00000010: ac86 4040 dece 513f 68a7 d93f 21ab 1c40
00000020: b6d9 4c40 5171 223f 81bc a43f 8604 d33f
00000030: 4d18 a23f 9dbe 0840 8688 403f 890c 8f3f
1.5215337 0.8599497 0.6787533 1.3978424 3.0082197 0.8195628 1.7004213 2.4479449
3.200788 0.6345416 1.2870027 1.6485755 1.2663666 2.136634 0.7520832 1.11757

bn2.bias f4 [16]
00000000: 699e c7bd 9e73 3e3e 14ae 4a3f 4880 063f
00000010: 4838 89be cc6d 7b3f a780 923e 044f 34be
00000020: 9a7b c8be 2385 0c3e b8fa 843e cc77 c6bf
00000030: 1f2c 0ebf 8dfb 6c3d 8cd4 453e fd35 09bf
-0.09747011 0.18598792 0.7917187 0.5253949 -0.26800752 0.9821441 0.2861378 -0.17608267
-0.391568 0.13722663 0.25972533 -1.5505309 -0.55536073 0.057857085 0.19319361 -0.53598005

bn2.running_mean f4 [16]
00000000: 3f92 fdbe 3be2 2440 da5e efbd e0ff 08bf
00000010: 53c5 4fbf 8f15 9d3f 63e2 683c 6239 30bf
00000020: 8d5e 8ebe ce70 3dbf d62b cabf d753 bfbf
00000030: 8d6c 2740 cf24 74bf 3cfd bd3f c7ed 39c0
-0.4952564 2.576308 -0.116880134 -0.53515434 -0.8116047 1.2272204 0.014214131 -0.6883756
-0.27806512 -0.7400025 -1.5794628 -1.4947461 2.6160004 -0.95368665 1.4842906 -2.9051378

bn2.running_var f4 [16]
00000000: a9ac 3c47 1e03 5d47 4f8a 4246 2289 a147
00000010: 5901 d247 698a 0947 b6a8 0d47 4f9e 9747
00000020: 4590 6d47 c406 9d46 2479 1847 4b03 b046
00000030: 50cc fc46 ce5a 8047 86aa 8c46 066b e046
48300.66 56579.117 12450.577 82706.266 107522.695 35210.41 36264.71 77628.62
60816.27 20099.383 39033.14 22529.646 32358.156 65717.61 18005.262 28725.512

conv5.weight f4 [32, 16, 3, 3]
00000000: 8ed0 83be 9d2f 80be e7d5 ee3d 8f7f 56be
00000010: d8d6 1ebe 5baf 4b3d 147a 1ebe 28a3 74be
00000020: 4113 4fbe fd8a c73d 9b26 a23b d4ed 443d
00000030: 3d13 7bbd 10b1 11bd 427a 173d 5892 0dbe
00000040: bf2f 81bd d3a8 c3bc c761 20bd b128 e1bd
00000050: 6e0b 20be b857 33bc a129 0d3d f637 373d
00000060: 8e32 debc f3f6 213d 8220 0a3e 3008 1fbe
00000070: c9cb babe aba9 67be 6b44 89be eb8c 94be
00000080: 0ae2 19be 2c4d 05bf 512d dabe 706d a6bb
00000090: c411 ee3e 617e b73d 0ea5 13be 086f 483f
000000a0: de9c 3e3e 9750 3a3e 3e4c a63e 87ff 82be
000000b0: bace b3bd 75b1 8c3e 2051 f53d 8868 09be
000000c0: 1a40 283e 3b30 02bd 3c7c f8bd e20d 09bb
000000d0: 626a 34be c31a 1abe 5c87 00be 180f a53d
000000e0: 8d37 b13e 4d71 fabb 68db 9b3d 4b5a 853e
000000f0: bf7d 3dbe 9d7b 89be 9011 09be acd8 063f
00000100: 30f8 3e3e 21d9 e03e d1b1 4d3e 8133 67be
00000110: a23c e4bd e094 c7be 96f8 08bf c5e6 99be
00000120: 958a a53e a142 b4be a055 aabe 8958 4b3e
00000130: b308 8ebe cfb6 b6be c2f0 5d3e 12ae 77be
00000140: 66f6 babe 0c2f 263d 1e1d 0e3d fdce ae3c
00000150: 0de7 053c f1fc b7bd 8208 91bd 5faf 1abe
00000160: c212 35be cdb8 bbbd 5fb4 9b3d beae a3bd
00000170: 7648 c6bd 75b1 313e 3f95 d9bd 2e28 c9bd
00000180: 8f96 eb3d 410b e5bd f971 63be 825a 12be
00000190: 2ec3 78be 0ce2 4dbe a2d5 3ebe 84ed 74be
000001a0: ea87 1fbe dbac 38be 8c39 19be d2f1 f9bd
000001b0: 8834 073e a263 79bd 7a7d f1bd 3499 69bd
000001c0: c5e7 54be 1e7e 4fbe d66e 86be 6361 6cbe
000001d0: b7ec 70be e0a0 b33e 16ac 4a3d a227 9dbe
000001e0: 9d05 c73e e881 f23d 0e13 b0bd 0378 f43d
000001f0: 5cc9 5fbd a406 2abe 54f6 81be 917b 4dbe
00000200: 620c 40be 63e3 34be e25a 07be 2972 9abd
00000210: c200 49bd 384e 3bbe be35 5ebe 4335 96be
00000220: 4f55 7abe 1739 febd d122 72be a6fd 2cbe
00000230: a16a 23bd 0573 19be 0038 45be 3b20 16be
00000240: cfeb bebe 1c83 92be cfa1 edbe 39c5 d8be
00000250: 8444 99be d725 62be b7d0 e9be c30e 94be
00000260: fcbe a2be b4aa 30bd c95e ae3d d568 233e
00000270: 0aa2 183d 8d85 123e 0a4a 243e 551a c5bd
00000280: a3b8 adbc 7646 85bd 25b2 9ebe 9f56 50be
00000290: 4f80 5bbd 6761 cebd 8c53 8b3d 31d4 2f3e
000002a0: 25f4 27be 7bc2 26bd cfb4 2b3d 1f54 8dbd
000002b0: cfd4 81bd ca5d 403e e4cb c0be 3fc2 7cbe
000002c0: 57b6 293e f838 fbbe 7f32 9bbe 49bb 0dbe
000002d0: f7f2 563a aee7 3e3d e755 0abf 88c9 abbe
000002e0: b3e1 56be 847a 8abe 9613 07bf e872 bdbe
000002f0: 8885 10be a5c1 a63d cfef 0fbe 6560 bebe
00000300: 5cef c43d cd28 2a3e 3fd2 d73c 351c dfbd
00000310: 22fa dc3d 14da 8c3d 84aa 0cbf cde0 4a3e
00000320: 9837 053e 3b1f fbbd 3e3f d33d 92a8 fa3c
00000330: f158 fb3e 6759 84bd d1f7 37be 25eb a6be
00000340: 0be7 8dbe 0d88 0abf d366 f4be 09b9 e8be
00000350: 9821 98be 085a 5bbf 57c8 2ebf 1d6b d3be
00000360: 56e8 1f3f 3206 993f 7dff 883f 7b3b 553e
00000370: 648e 0b3f d371 9f3e 4605 5bbd 699a 653f
00000380: c9e7 ca3e c557 ebbc 1a9b 26bd 8df1 e4bd
00000390: a7bf e7bd d4c3 e2bd 0106 19bd 80ce 41be
000003a0: 6482 bbbd 48ba 98bd 0a80 b1bd a122 1cbd
000003b0: 329f b9bd 1630 54bd a3a1 43bc e4aa f83c
000003c0: 34ca 8fbe f827 c9bd e323 0a3e d305 2bbe
000003d0: fa09 26bd 1397 92bc 8913 3dbe c6db 03be
000003e0: c71a 5f3b f6aa 81be aaf8 45bd b29f d4bc
000003f0: d627 bcbd b15d 24be 01ed ebbd 89b4 25be
-0.25745052 -0.25036326 0.116618924 -0.20947097 -0.15511644 0.04972778 -0.15476257 -0.23890364
-0.20222189 0.09743307 0.00494845 0.048078373 -0.061297644 -0.03556925 0.03698183 -0.13825357
-0.06307935 -0.023884213 -0.039155748 -0.109940894 -0.1562936 -0.010946207 0.03446353 0.044731103
-0.027123716 0.03954215 0.13488963 -0.15530467 -0.364836 -0.22623317 -0.2681001 -0.29013762
-0.15027633 -0.5207088 -0.426127 -0.005078964 0.4649793 0.08959652 -0.14418432 0.7829442
0.18614528 0.18194805 0.32480043 -0.25585577 -0.08779664 0.2747914 0.11978364 -0.13418782
0.16430703 -0.031784277 -0.12133071 -0.0020912816 -0.17618707 -0.15049271 -0.12551636 0.080595195
0.34612694 -0.007642901 0.07610208 0.2604545 -0.18505 -0.26852122 -0.13385606 0.52674365
0.18649364 0.43915656 0.20087363 -0.22578241 -0.11144377 -0.3898077 -0.5350431 -0.30058876
0.32332292 -0.35207084 -0.33268452 0.19857992 -0.27741012 -0.35686347 0.21673873 -0.24187496
-0.36516112 0.04057221 0.034695737 0.021338934 0.008172763 -0.089837916 -0.07081701 -0.15105961
-0.17682937 -0.09166107 0.076027624 -0.07992314 -0.096817896 0.1735285 -0.106241696 -0.09822117
0.11503326 -0.11183787 -0.22211446 -0.14292338 -0.24293205 -0.20105761 -0.18636182 -0.2391873
-0.15579191 -0.18034689 -0.14963359 -0.12204327 0.13203633 -0.060886033 -0.11791511 -0.05703087
-0.20791538 -0.20262954 -0.26256436 -0.23084025 -0.235278 0.35083675 0.04948052 -0.306943
0.3887147 0.11841184 -0.085973844 0.11936953 -0.05463539 -0.16604096 -0.25383246 -0.20066668
-0.18754724 -0.17664866 -0.13218263 -0.075413056 -0.04907299 -0.18291557 -0.21700189 -0.2933751
-0.24446605 -0.12413233 -0.23646094 -0.16893634 -0.03989661 -0.14985283 -0.19259644 -0.14660732
-0.37289283 -0.28615654 -0.46412513 -0.4233797 -0.29935086 -0.22084747 -0.4566705 -0.28917512
-0.31786335 -0.043131545 0.085141726 0.15957959 0.037263907 0.14308758 0.16043869 -0.09624163
-0.021206206 -0.0650758 -0.30995288 -0.20345543 -0.05358916 -0.10077172 0.06803045 0.17170788
-0.16401727 -0.040712815 0.04192048 -0.069008105 -0.06339418 0.18785778 -0.37655556 -0.24683474
0.16573463 -0.490669 -0.30311963 -0.13840975 0.0008199657 0.046607666 -0.54037327 -0.33552194
-0.20984535 -0.27046597 -0.5276426 -0.3700173 -0.14113438 0.081424035 -0.14056323 -0.37182918
0.09615967 0.16617127 0.02634537 -0.10894052 0.107898965 0.068775326 -0.54947686 0.19812317
0.13009489 -0.12261816 0.10314797 0.030597959 0.49091294 -0.06462365 -0.17965628 -0.32601276
-0.27715334 -0.54113847 -0.477347 -0.4545367 -0.2971313 -0.8568425 -0.68274444 -0.41292658
0.6246389 1.1955016 1.0702969 0.20823471 0.54514146 0.31141528 -0.053471826 0.89688736
0.39629963 -0.028728375 -0.04067526 -0.11178885 -0.11315852 -0.110725075 -0.03735924 -0.1892643
-0.091557294 -0.07457405 -0.08667 -0.038118962 -0.09063567 -0.05180367 -0.011940393 0.030354924
-0.28083956 -0.098220766 0.13490252 -0.1670144 -0.04053686 -0.017894303 -0.18464483 -0.12876806
0.003404306 -0.25325745 -0.048332848 -0.025955055 -0.091872856 -0.16051365 -0.11519814 -0.1618215

conv5.bias f4 [32]
00000000: d426 a93c d136 483d cdb6 383d 7c28 3f3d
00000010: 7c2d 373d 033a 263d 723a 563c 6059 89bb
00000020: d11e f93a 0a01 aabc 3731 c03c 1217 be3a
00000030: c902 413c bac2 03bd e001 9abc 6952 193d
00000040: a721 9f3b 4433 8d3c 0798 32bd 961b afbc
00000050: d477 a6ba 19a6 abbb 1590 023d 4d0b 77bc
00000060: 2eb6 2a3d 4042 1ebc 2b1f 9f3c bd04 10bd
00000070: 5fe7 0a3c 456b 47bd 957f 2fbd 0be2 02bd
0.020648398 0.048880402 0.045096207 0.04666947 0.04472111 0.040582668 0.013075458 -0.0041915625
0.0019006376 -0.020752449 0.023460967 0.0014502725 0.011780449 -0.032168128 -0.018799722 0.037432108
0.0048563066 0.01723636 -0.043602016 -0.021375459 -0.0012700506 -0.0052383062 0.03187569 -0.015078378
0.041677646 -0.00965935 0.019424042 -0.03516077 0.008478015 -0.048686285 -0.04284628 -0.031953853

bn6.weight f4 [32]
00000000: 6ce8 9f3f f13a b03f a1d5 cd3f 1ad4 db3f
00000010: cb09 1340 6faf d13f 88f5 a43f 591e c23f
00000020: 1e82 bc3f 0ebb d93f e80f a93f d3cc 833f
00000030: 9cfc a63f 4c3c d23f 2ed1 8d3f 2ffe 793f
00000040: cc82 b73f a39a 5d3f b070 c43f 165f 733f
00000050: ab86 8c3f 416e 0140 91c8 923f 3f9c a03f
00000060: 88e1 9f3f 9e6c e13f b965 f13f cdd8 d33f
00000070: cf11 a13f 5d02 5d3f b49b 4d3f 77f5 db3f
1.2492805 1.3767987 1.6080819 1.7174103 2.2974727 1.6381663 1.288743 1.5165511
1.4727209 1.701021 1.3207979 1.0296882 1.304584 1.6424651 1.1079462 0.9765348
1.4336791 0.8656408 1.534689 0.95066965 1.0978597 2.0223544 1.1467458 1.2547683
1.2490702 1.7611272 1.8859168 1.6550537 1.258356 0.8633173 0.8031571 1.7184285

bn6.bias f4 [32]
00000000: d51e b3bd ea07 fdbc 7a1e 02bf 4ec0 18bf
00000010: 759c 7cbf e65e 58bf 64ac 25bf 3f57 dcbe
00000020: e5c8 93be e598 3ebf 6eb2 f4be 691f 733d
00000030: c46c 01bf d730 40bf 4d43 47be 2441 cdbe
00000040: fbfc 9bbe a9c5 14be 886a 0dbf ce56 b4bd
00000050: 4b59 83be fd43 18bf 1fea 65be 9480 42be
00000060: c363 e3be 7650 17bf 0a76 35bf e573 1ebf
00000070: 9c77 c6be 4e7b 15bc b6c4 c43b 200f 32bf
-0.08746115 -0.030887563 -0.50827754 -0.59668434 -0.98676234 -0.84519804 -0.6471617 -0.43035313
-0.28864208 -0.7445205 -0.4779238 0.059356127 -0.5055659 -0.75074524 -0.19459267 -0.4008876
-0.30466446 -0.14528526 -0.5524068 -0.08805619 -0.25654063 -0.5947874 -0.22452591 -0.18994361
-0.4441205 -0.5910715 -0.7088324 -0.6189559 -0.3876313 -0.009123636 0.006004895 -0.6955433

bn6.running_mean f4 [32]
00000000: 6241 7bc0 2308 91c0 7e51 acbf b3fa 81c0
00000010: ecda acc0 2e3a 58c0 c6b3 b0bf d61c e1bf
00000020: b146 69c0 3c1c 51c0 a100 96c0 7afa 49c0
00000030: 0417 733f c163 8ec0 17e4 95c0 2101 1c3f
00000040: f386 c4c0 56eb 3840 9a79 52c0 5539 89c0
00000050: 839b 693f de01 bdc0 31cc 7ac0 10c1 ba3f
00000060: 3e3c 8bc0 c3d7 5cc0 06f2 5ec0 98be e3c0
00000070: a670 723f ed9c 84c0 8bef 8a40 88bf 1dc0
-3.9258657 -4.5322433 -1.346237 -4.061853 -5.401724 -3.378551 -1.3804862 -1.7586925
-3.6449397 -3.2673483 -4.687577 -3.1559129 0.94956994 -4.449677 -4.684093 0.6093922
-6.1414733 2.8893638 -3.288672 -4.2882485 0.9125292 -5.906478 -3.9187129 1.4590168
-4.351104 -3.450669 -3.483522 -7.117016 0.9470314 -4.144156 4.341741 -2.4648151

bn6.running_var f4 [32]
00000000: 669c 7941 d151 b141 6078 6841 558e da41
00000010: 8e42 1942 a0be a241 4861 3441 16af 4741
00000020: 2d92 6441 3738 8541 64dc 6941 7829 2041
00000030: 9898 0b41 0bde 9541 077f 4141 f0b5 2641
00000040: 155b c041 cbdc 5e41 095a 3641 c864 6941
00000050: c56e 5741 970a 2242 eccd 8041 15f7 b941
00000060: 7e56 7a41 1fa1 9141 e288 8641 f513 a541
00000070: 8a27 4a41 498a 3241 75f3 6241 fe88 b441
15.600683 22.16495 14.529388 27.319498 38.314995 20.343079 11.27375 12.480246
14.285687 16.652449 14.616306 10.010124 8.724754 18.73342 12.093513 10.419418
24.044474 13.928905 11.396981 14.587105 13.464543 40.51034 16.100548 23.245646
15.646116 18.203672 16.816837 20.634745 12.634653 11.158761 14.184438 22.56689

conv9.weight f4 [64, 32, 3, 3]
00000000: 06aa 0f3d 58ad 6cbd 5491 a33d 4dc6 4e3e
00000010: f709 b53d 145a 873e d571 223d 0210 16be
00000020: 86df 6dbd 566f 94be 310a 81be 53a2 5fbc
00000030: f9d6 8f3e 4968 883e 2385 3f3e c519 8a3c
00000040: 7fce b2bb 9153 353d c2de 2cbe 6703 02be
00000050: e449 45be 8320 49be 689d adbd 816a bebd
00000060: 1c8b 9e3d fcd3 2b3c 4f3c 19bd c5c2 ebbd
00000070: 5e6a d8bd 5a2c e4bd 9ede 893c c88b 743d
00000080: ec3d 823a 0b71 7cbd a6c1 323e 01f4 3b3e
00000090: 501f a23d 8aaf 923d 5632 793d aac5 ffbd
000000a0: 5b78 7fbc 4a9f 5e3d 67b8 933c 35cc 0f3e
000000b0: 25f3 333e d60d 35be 1f1c e7bd 9a43 f3bd
000000c0: ecdc 0ebe dcb0 f7bd ea18 debd c438 bc3a
000000d0: 6aa3 313d b052 d33d c047 20be 76f8 8dbe
000000e0: c825 85be fdcd fc3d 7241 393e 0c4a a13d
000000f0: 73c8 b73b 5fbe 5f3d 9534 dd3d 493e f3bc
00000100: c8e1 8d3e 3516 383e 247b d73d e373 923e
00000110: 077b 913b c3bd c9be 7184 2abe 76a5 99be
00000120: dc78 f23d 4368 bdba 1d26 00bb 8277 4bbe
00000130: 7aa2 85be 009d 8ebe 30a0 33be 8f00 d1bd
00000140: cf7c 033c e19b 683d 7164 febc 6658 be3d
00000150: 5f56 36bd 1532 4dbd f76e 803c ce29 e5bd
00000160: ec9c 8bbd b801 bc3d ee13 61bd 191f bf3b
00000170: 5561 2bbb 924b bbbc cb68 763d 707a 183d
00000180: 9ce3 e03d cedf 8c3e de6f c83e 020d 923e
00000190: 9904 513e 24bf b23e ca50 533e 9329 133e
000001a0: fcd1 6d3d 57a0 943d dcb5 dc3c 102a a8bd
000001b0: 2892 8dbe f9d8 3fbe c503 adbd 8fb7 0fbe
000001c0: e6f2 cb3d bd6b 1e3e f93b 12be eb44 313d
000001d0: 2de6 293d 64aa 22be 3d36 913d e2f1 903d
000001e0: 4d3f 6cbe 14d0 9abd 16b2 04bd 08bb cc3c
000001f0: b5a4 0f3e 341e 803e 4d6a 3f3c 9b32 b73b
00000200: aba0 933d a669 f2bd e40d 0fbe 1840 f8bc
00000210: e053 e6bd 6dfb 24bd 05d3 a8bc fa8f 75be
00000220: 8934 7cbe 1761 4cbe 681e e7bd b477 cebd
00000230: 7c19 35bb dfdb 9bbc 8fb7 2f3d 066d 663d
00000240: cf81 7dbd 4766 bebc 865d 0b3d 1075 6cbe
00000250: 06af 3fbe 3898 48bd 101d 4bbe d7db 38bd
00000260: 0769 0d3e 5e48 a53c be9d 65bd f258 d9bd
00000270: 632a 1fbd e984 24be 6737 56be 45e7 a53d
00000280: 6dc0 60bd da1d 81bd d29a bb3c d431 94bd
00000290: 25cd d2bd d741 e8bd 408a 49bd 14c6 e7bd
000002a0: ada7 0d3d c9c9 2dbd bdac 3dbc c9dd b13d
000002b0: 7658 8dbd b961 dbbc 6924 7abe f158 bdbe
000002c0: eca1 59be 91b9 58be 855a c1be c6ca 72be
000002d0: 4691 59bd d590 583d 232e 72bd 34ed 68be
000002e0: d7da 27be 258e 04be 17e3 013e 57f1 e93d
000002f0: 3f52 8e3d ab05 523e 3dcd f33d 714d aa3d
00000300: acdf 4dbe 64e3 35be 4b7e 4fbe 1cad f3bd
00000310: 5090 bdbd 4ff5 14bd feb1 f4bc fb2a bebd
00000320: 3e02 7c3d ee22 a5bd 330a 15bb af88 cf3d
00000330: c7cf afbd 4b8b b2bd 27e7 593a e12e 1b3d
00000340: 80ab 95be a71a c0be 9074 143d 19de 04be
00000350: 9bac 69be abce bd3d 32ff 4c3c 774e 8d3c
00000360: edf7 00be e5d5 f9bd 4ada 2cbd 897c 2fbd
00000370: 3f09 3cbd 22d4 f1bb 6752 36be 6501 5ebe
00000380: df26 92be 71cb 093e b3f4 083e 9a99 0ebd
00000390: 6de1 3f3d ed19 d23d 750c 493e 1552 7b3e
000003a0: 7677 873d 67a0 343e f034 52bd f868 b7bd
000003b0: fded 17be 81a4 93bd f52e 33be 9bbe 4fbe
000003c0: 64b0 2d3d 37b0 b1bd 10f6 3cbe 2cb9 5a3e
000003d0: 4a35 e23d 0b14 ad3d 2045 f0bd 91e3 51be
000003e0: a6dd 53bd 992e b3bc 166c b8bd a00c 2b3d
000003f0: 3ac6 0fbe 1a20 7bbe 2bcb 74be dd49 93be
0.035074256 -0.0577825 0.079867035 0.20192833 0.08839791 0.26435912 0.03965934 -0.14654544
-0.058074497 -0.28991193 -0.25203088 -0.013649541 0.280937 0.26642063 0.18703131 0.016857991
-0.005456745 0.04426915 -0.1688185 -0.1269661 -0.19266468 -0.19641308 -0.084772885 -0.09297658
0.07741377 0.010487553 -0.03741103 -0.11511759 -0.10567163 -0.11141272 0.016829785 0.05970362
0.0009936667 -0.061631244 0.17456684 0.18354799 0.07916129 0.07162388 0.06083902 -0.12488873
-0.01559266 0.05435113 0.018032266 0.14042743 0.17573221 -0.17681059 -0.112846605 -0.11878128
-0.13951463 -0.1209428 -0.10844596 0.0014360179 0.043368734 0.10318506 -0.1565237 -0.27728623
-0.26005387 0.12343977 0.18091372 0.078754514 0.005608612 0.05462491 0.10801045 -0.029692786
0.2771132 0.17977221 0.10521534 0.2860404 0.004439715 -0.3940259 -0.16652085 -0.3000905
0.11839458 -0.0014450628 -0.0019553967 -0.19869807 -0.26100522 -0.27854156 -0.17541575 -0.10205185
0.008025362 0.056789283 -0.031053754 0.092942044 -0.044515964 -0.05009659 0.015677912 -0.11189614
-0.0681704 0.09180015 -0.054950647 0.0058325646 -0.0026150544 -0.022863183 0.060158532 0.03722614
0.10980913 0.275145 0.39147848 0.2852555 0.2041191 0.34911454 0.20636287 0.14371328
0.058061585 0.07257145 0.026942186 -0.08211148 -0.2765057 -0.18735112 -0.084479846 -0.14034866
0.099584386 0.15470786 -0.1428069 0.043278616 0.04147928 -0.15885311 0.07090423 0.070773855
-0.23071022 -0.07559219 -0.0323964 0.024991527 0.14027674 0.25023043 0.011683059 0.0055907494
0.07208379 -0.11836557 -0.13970143 -0.030304 -0.11246467 -0.04027884 -0.020608434 -0.23980704
-0.24629416 -0.19958912 -0.112850964 -0.10081425 -0.0027633598 -0.019025741 0.042899664 0.056256317
-0.061891373 -0.023242129 0.034024738 -0.23091531 -0.1871911 -0.048973292 -0.19835305 -0.04513153
0.13809596 0.020176109 -0.056058638 -0.10612668 -0.038858783 -0.16066326 -0.20919572 0.08100752
-0.05487101 -0.06304522 0.022900973 -0.072360665 -0.102930345 -0.11340683 -0.04920411 -0.11317077
0.034583736 -0.042428765 -0.011576829 0.0868488 -0.06901638 -0.026779996 -0.24427952 -0.3698192
-0.21253175 -0.21164538 -0.37764373 -0.23710164 -0.05311706 0.052872498 -0.05912603 -0.22746736
-0.16392075 -0.12944849 0.12684284 0.11422985 0.06949281 0.20509975 0.119043805 0.08315552
-0.20104855 -0.17762524 -0.2026302 -0.11898252 -0.09256041 -0.036366757 -0.02987003 -0.092855416
0.061525576 -0.08063303 -0.0022741675 0.10133492 -0.08584552 -0.08717974 0.00083123374 0.037886504
-0.29232407 -0.37520334 0.036243975 -0.12975349 -0.2281975 0.092679344 0.012512015 0.017249329
-0.12594576 -0.12199 -0.042200364 -0.042843375 -0.045907255 -0.0073800245 -0.17804871 -0.2168022
-0.2854528 0.13456513 0.13374595 -0.034814455 0.046845842 0.10258851 0.19633658 0.2454303
0.06614582 0.17639314 -0.051320016 -0.08955568 -0.14836879 -0.07209111 -0.17498381 -0.20287554
0.042404547 -0.086761884 -0.1845324 0.213597 0.1104532 0.084510885 -0.117319345 -0.20496966
-0.051725052 -0.021872805 -0.09004991 0.041760087 -0.14040461 -0.24523965 -0.23905627 -0.2876729

conv9.bias f4 [64]
00000000: 2b75 9a3c e42d ddbc fd6a 3a3c 1c17 b7bc
00000010: e2bf fe3c ff9f d1bc e403 033d 85fa 903c
00000020: 81a5 c4bb fccc 0c3d 39f6 87bc fe41 06bb
00000030: 65ba 183c 2d75 a73c ff9e de3c 81f2 06bd
00000040: d405 013c 699f cc3c ed20 41bc 68b6 0f3c
00000050: f323 0838 eff5 26bb 829f 48bb 810c 06bd
00000060: 1961 b8bc b2e1 ce3c 57ed 0a3d 6e2d 9fbb
00000070: a409 ec3c 1235 aabc b989 e93c 9410 9f3c
00000080: 4675 303c 7286 faba ad27 63bb 8714 883c
00000090: ae55 b3bb c986 b9bc e608 b53c f0e3 b8bc
000000a0: fa5e 88bc b6fd 0c3d 5ad0 343c 8505 833c
000000b0: 01cd d63c 4482 60bc 3ec1 0c3d 766e c2bc
000000c0: 1876 123b f3a0 d0bc 5b65 e5bc 7e05 863b
000000d0: 476c 9739 97a4 ba3c dadd dabc 616b 4a3c
000000e0: 361d b0bb 4c5a f43b 4533 d9bb c725 ff3b
000000f0: dd44 e938 eeb2 fbbc 3410 00bd f07d 10bc
0.018854698 -0.026999421 0.011378047 -0.022349887 0.031097356 -0.025588987 0.031986132 0.017697582
-0.006001175 0.034375176 -0.0165969 -0.0020486112 0.009321784 0.020441616 0.027175425 -0.032946113
0.007874925 0.024978356 -0.011787635 0.008771516 3.2458407e-05 -0.0025476178 -0.0030612652 -0.03272677
-0.022507237 0.025254104 0.03391775 -0.0048577106 0.02881319 -0.020777259 0.028508054 0.019417085
0.010770148 -0.0019113554 -0.00346611 0.01661135 -0.0054728603 -0.022647278 0.02209897 -0.022569627
-0.01664685 0.034421645 0.011036003 0.015993843 0.0262208 -0.013702933 0.034363978 -0.023734313
0.0022348221 -0.025467372 -0.028002432 0.00409001 0.00028881637 0.02278356 -0.026717115 0.012354703
-0.005374576 0.0074570533 -0.0066284263 0.007786486 0.000111231326 -0.030724969 -0.031265453 -0.008819088

bn10.weight f4 [64]
00000000: 73e7 893f f2d8 893f 6bbd 913f 7969 833f
00000010: dd83 853f a56d 9c3f dc87 7b3f 402a 413f
00000020: 729c 803f 8ace 393f 4d86 923f 72aa 823f
00000030: 36a8 9e3f ba76 a53f 3857 983f 2b91 9b3f
00000040: 9ad3 733f ad97 883f 76b0 083f 90e7 933f
00000050: a1ef 9e3f 996c 6f3f d724 9c3f 1d87 953f
00000060: a63b 813f 7ee2 9e3f 4c29 963f 1e57 ad3f
00000070: a0b8 9c3f e259 823f 8a47 5c3f 38f5 893f
00000080: 34c4 a33f 0a09 b93f 24f1 913f cca7 483f
00000090: b4f0 823f 57e3 8e3f 5231 8e3f 009d a73f
000000a0: 1c03 973f f530 9c3f 8708 983f 7610 913f
000000b0: b295 423f 9644 b13f 0290 803f e51f 723f
000000c0: c0ec c73f 82a0 4c3f 247a a03f 2f73 b13f
000000d0: 2cdf 9f3f 042a 953f 8ae2 9f3f 2073 9f3f
000000e0: 5d17 843f 12c5 b13f 04ff 9c3f 6ca3 783f
000000f0: 18a8 ac3f b200 a93f eb6c a63f 8b49 9b3f
1.0773758 1.0769331 1.1385931 1.0266563 1.0430866 1.2220961 0.9825418 0.75455093
1.0047743 0.7258078 1.1447235 1.0208266 1.2395084 1.2926857 1.1901617 1.2153677
0.95244753 1.0671288 0.5339426 1.1555042 1.2416879 0.9352508 1.2198743 1.1681858
1.0096328 1.241287 1.1731353 1.3542211 1.2243843 1.018368 0.8604666 1.077796
1.2794251 1.4455884 1.1401715 0.7838104 1.0229707 1.1163129 1.1108801 1.3094788
1.1797824 1.220244 1.1877602 1.1333148 0.76009667 1.3849056 1.0043948 0.9457992
1.5619125 0.79932415 1.2537274 1.3863276 1.2489982 1.1653447 1.2491009 1.2457008
1.031963 1.3888266 1.2265325 0.9712436 1.3488798 1.3203337 1.3001989 1.2131819

bn10.bias f4 [64]
00000000: 9c56 3bbf d29b 2fbf ba16 52bf 49b0 edbe
00000010: 8f31 38bf e23d 57bf bdaa e0be 23b2 adbe
00000020: bb79 f0be 08f3 82be dd61 06bf 38cd 31bf
00000030: 7b6e 08bf 0ad8 78bf b9ce 00bf e80c 2bbf
00000040: 76af f7be e1b1 15bf 3afb 60be 0c7c 31bf
00000050: 59a7 53bf c0ed febe f3fa 2abf 0cbb 33bf
00000060: 1c77 06bf 668b 2ebf 1d70 3fbf c874 67bf
00000070: b445 77bf 6a49 d3be a5d5 f6be 1f14 5abf
00000080: 7f52 3dbf 56dc 38bf 901c 26bf 7de7 02bf
00000090: fca6 a1be 4bc5 0bbf c056 2cbf 44dd 4dbf
000000a0: f288 0fbf d58f 51bf 9dc6 3dbf 6522 31bf
000000b0: b849 0ebf ba4e 5cbf bbff fabe 7f90 ccbe
000000c0: 9ba9 41bf 0a0a f6be fe34 3dbf b088 39bf
000000d0: 802c 82bf dfab 4cbf c579 37bf 4368 0dbf
000000e0: fb87 0cbf a1fe 29bf c306 74bf 465a c2be
000000f0: 0f8d 4ebf 50b1 84bf 41b5 93bf abe1 40bf
-0.7317903 -0.6859714 -0.8206593 -0.46423557 -0.7195062 -0.840788 -0.43880263 -0.3392497
-0.46967873 -0.25576043 -0.5249308 -0.69453764 -0.5329358 -0.9720465 -0.50315434 -0.6681657
-0.48376054 -0.58474547 -0.21970835 -0.69329906 -0.8267723 -0.49790764 -0.6678917 -0.70207286
-0.52525496 -0.68181455 -0.74780446 -0.9041257 -0.96590734 -0.41266948 -0.48209873 -0.8518695
-0.73954004 -0.72211206 -0.6488733 -0.51134473 -0.3157271 -0.5459792 -0.6731987 -0.8041575
-0.56068337 -0.81860095 -0.74131185 -0.69193107 -0.55581236 -0.8605763 -0.49023232 -0.39953992
-0.7564942 -0.48054534 -0.73908985 -0.72474194 -1.016983 -0.79949754 -0.7167018 -0.55237216
-0.5489499 -0.6640416 -0.9532282 -0.37959498 -0.8068399 -1.0366611 -1.1539689 -0.7534434

bn10.running_mean f4 [64]
00000000: a5f3 18c0 a3d0 d7bf 7d0d a1c0 d25c 0fc0
00000010: dc14 adbf de94 0ec0 7f7c 43c0 36ae a0be
00000020: 47b4 a2bf 46e6 14c0 9f1a 82c0 8b86 22bc
00000030: e46f 3ec0 f312 cbbf cd42 80bf dcad d4bf
00000040: a639 95bf b0b8 14c0 59b6 853f 1789 90c0
00000050: 5400 87bf c72d c5bf 3ecd 04c0 221b 69c0
00000060: fb90 e7bf 989c 3bc0 655b 1cbf 655f 43c0
00000070: 2e5a 02c0 a409 53c0 1024 553f aa98 a8be
00000080: a0bb 25c0 ac58 5fc0 7593 08c0 f806 a03d
00000090: 14ff 31c0 59e3 cdbf 1e7f 0cc0 54e3 afc0
000000a0: d88c 02c0 2af0 1ac0 8668 41c0 6876 6cc0
000000b0: 47b2 5fbe 0ba4 64c0 78d1 5bc0 d219 6ac0
000000c0: 4ff5 b0bf 116f 52bf 9235 6fc0 5ac5 75c0
000000d0: b7fe 9b3e 58a8 16c0 5ab2 96c0 f2de a8bf
000000e0: a1d1 10c0 674f 0ac0 403c 0ac0 3de6 e2bf
000000f0: 993f 43c0 0972 16c0 4f91 b5bf 9ddc 08c0
-2.389871 -1.6860546 -5.0328965 -2.2400403 -1.3521991 -2.2278361 -3.0544736 -0.31382912
-1.2711266 -2.3265548 -4.0657496 -0.009919773 -2.9755793 -1.5865158 -1.0020386 -1.6615558
-1.1658218 -2.3237724 1.0446273 -4.5167346 -1.0546975 -1.5404595 -2.075027 -3.642281
-1.809112 -2.9314327 -0.61076957 -3.0526974 -2.0367541 -3.2974634 0.8325815 -0.32928973
-2.5895767 -3.489787 -2.134 0.07813829 -2.7811937 -1.6085006 -2.1952586 -5.4965
-2.0398464 -2.4209085 -3.0220046 -3.694727 -0.21845351 -3.5725124 -3.43466 -3.657826
-1.3824862 -0.82200724 -3.7376447 -3.8401704 0.3046777 -2.354025 -4.7092714 -1.3193038
-2.2627947 -2.1610963 -2.1599274 -1.7726513 -3.0507567 -2.3507102 -1.418497 -2.1384652

bn10.running_var f4 [64]
00000000: 5d7b 1440 85d8 4040 b985 9240 e475 5640
00000010: 0a62 3840 e7b0 4e40 d798 9040 15e0 2f40
00000020: 57cb 3040 fdbd 4940 d5e4 8540 a3f7 6640
00000030: c420 9d40 5153 5f40 1acd 5140 5a9b 9740
00000040: 61d9 5e40 6b5a 4740 b51d fc3f c389 c640
00000050: 01a9 4740 279f 5040 0cce 8840 9185 7c40
00000060: 81c1 2a40 9956 8140 3352 2b40 ba24 3b40
00000070: da68 3f40 8043 7540 7b12 1940 3314 2540
00000080: 8e82 8340 bd7f 9e40 c7ff 8640 607f 4a40
00000090: 55bd 7a40 2196 3940 c0fd 5240 e26a ba40
000000a0: 012a 5c40 59e4 7b40 7434 bf40 d571 8240
000000b0: 40d0 0940 a967 3f40 18ce 6340 57dd bd40
000000c0: 94e5 9340 0dda 2340 4dfc 7e40 422f a040
000000d0: 7792 2f40 806f 3f40 b197 8240 6ab9 4140
000000e0: 3b10 8040 04bd 7440 20f3 5740 fb39 5a40
000000f0: d06c 7140 3e35 3440 67eb 1840 3a18 7f40
2.3200295 3.0132153 4.5788236 3.3509455 2.8809838 3.2295473 4.518657 2.748052
2.7624109 3.152221 4.1841836 3.6088645 4.9102497 3.4894602 3.2781434 4.737714
3.4820178 3.1148937 1.9696566 6.2043166 3.1196902 3.259714 4.275152 3.9456522
2.6680605 4.041821 2.676892 2.9241166 2.9907746 3.8322449 2.391753 2.5793579
4.109687 4.953093 4.218723 3.1640244 3.917806 2.8997881 3.2967377 5.825547
3.4400637 3.9358122 5.975153 4.0763955 2.1533356 2.990702 3.559454 5.933269
4.6217747 2.5601838 3.9841492 5.005769 2.7433145 2.9911804 4.081017 3.0269418
4.0019813 3.8240366 3.3742142 3.4097888 3.7722664 2.8157496 2.3893678 3.9858537

conv13.weight f4 [128, 64, 3, 3]
00000000: a484 853a bb98 dcbd 8de2 34be a8a4 073e
00000010: f7ef 03bc f456 8ebd 9e9d 9c3d 99eb 2e3d
00000020: 6ca0 44bd 079f 9d3d e9aa 5d3d a6b4 4b3d
00000030: edf7 11be dc5d a8bd 8382 37bd a11b 323d
00000040: 4526 d03d 9f2d 5ebc b9f6 9cbd 63b1 c2bc
00000050: 0fa3 233d e509 b5bc f7ac 71bd 35b4 13bc
00000060: c730 5fbd 1210 c5bc 918c 41be 0802 1e3e
00000070: ba28 583d d046 053e f558 2cbc 9526 a83d
00000080: b3fc d03d 55a6 eebd 3435 dbbd 1e19 36b9
00000090: 2e6d bcbc b6a4 85bd e26a 383d bfdb a0bc
000000a0: a638 8fbb 03ad eabd 0a8a 18be f0d9 2bbe
000000b0: 8792 19be 095c 04bc c54d 72bd 5beb 24be
000000c0: bc7e b33d 4bc0 3e3b 76b9 0c3e 5d02 a53d
000000d0: 7852 a03d bd49 c43d 2198 2dbe 11c8 18be
000000e0: db5f 5a39 1867 a8bd 56ad 64bd e51a 45bd
000000f0: d038 09be f2aa e6bd 0868 86bd 9ce6 fe3d
00000100: 4864 213e 70f8 303e 4686 4d3d d729 9dbc
00000110: 70aa 733c b1cc 67bc 1fa0 a3bb 8286 91bc
00000120: e0ab 8dbb 21c3 e6bd 90cb 42bd 826c a33d
00000130: 513a c2bd 7722 643c 0654 9dba 84bb a9bd
00000140: b9e5 1c3d e474 8a3d 1256 3d3d d548 0c3e
00000150: a207 373d 7172 b2bd e9f1 033d 05f7 353d
00000160: 09d8 87bd 864c e4bc fce0 0fbd 059a bbbd
00000170: 9aae 82bc 78e1 9cbc a8e3 fabd ed6d 24bd
00000180: 9946 21bb 7d1a 35be f679 19be ad4c 0e3e
00000190: 707a 1c3e c22d 803d e98c bc3d 1324 e3bd
000001a0: d331 0b3d 5baa 30bd 0d17 cb3c cf94 273d
000001b0: 53be 2b3d a028 923d c015 413d 62d5 dbbd
000001c0: 1355 91be 733b 2b3d 7c70 af3c c2ed 7bbe
000001d0: afb8 41be 7a3f 22bc 406a 0a3e 430d 0abd
000001e0: 0303 003e b36c 0a3e 4290 153e cbec 343e
000001f0: a6a9 ba3d 0a30 17bb 8112 803d 0e21 e53d
00000200: 3da1 2dbd 9c11 043d b4c1 bb3c c218 16be
00000210: cc93 563b 6620 1e3d 2bf8 c5bd 11a7 e2bb
00000220: 1f99 933b 0534 70bd 5cdd 8cbc 5ce1 313e
00000230: 79f1 123e 93ae 2a3b baba 7b3d b0ca 613d
00000240: 0a70 6bbd 154e 40bd 43f0 7dbd 0648 55bc
00000250: 37e6 0abe e374 bebd 2f48 edbd 12fe 0fbe
00000260: c8cf 0ebe 0c8e c6bd 49da d3bc c7d8 843d
00000270: a03c 70bd 5427 6ebd f29f 773e e6dd 143d
00000280: 1165 9abc 1647 633d d226 3ebb a918 df3c
00000290: 6d33 a9bc fd06 cbbc 8c46 42bd a8a9 1bbe
000002a0: 58f1 4e3d dafc c53d 6e81 3abd df21 80bd
000002b0: b29b ce3d f99e 893d 8ebb 41be 2da0 7abd
000002c0: 40e6 9abd ed03 95bd ca3c cabd ff0e 8dbd
000002d0: 9ea7 983d c64b 693d 191f bebb 1466 3e3d
000002e0: 010b c33d 79ff df3d 9035 4abe d57b cfbd
000002f0: 86f4 dfbd 22b6 0e3d 6c8a b9bd 0d9c 9dbc
00000300: 32c0 ad3b 566e f9bd cc68 f5bc 994d 95bd
00000310: 9fad 07be 503c f33c 2ed9 713d d142 5f3e
00000320: b1ba ba3d 1305 4fbc 2222 7c3d 405d 7c3d
00000330: 2eab f43d b322 2fbd 95a9 9abd afa8 3abe
00000340: a966 15be 884f 94bd 3e1f ecbd 0ad5 46bd
00000350: eac3 8fbd aeb4 edbd 3faf 32bd 3d0c 56bb
00000360: f71b fd3c 5427 3dbd 9f9f f53c fad8 aeba
00000370: e4da 1b3d d8b4 97bd 74c2 8b3d 05ac fc3d
00000380: 72f4 96bc e240 34be d5d8 26be 85ce 3bbe
00000390: caca 04be 72ca 7bbd b604 12be 7f5f 95bd
000003a0: 35df 13be a6ff 73bd 0a3e 2abe f844 11be
000003b0: 6b2f f33c eeb6 50bd 8628 b0bc afa9 0e3d
000003c0: 57d2 61bd 4649 8bbd 0ea4 e3bd 208d 033e
000003d0: 8d58 b53b 907c be3d 3c96 55bd 3700 31bd
000003e0: 1644 eb3c 88b8 f83d f8cc 0d3c 8568 5b3d
000003f0: a636 ab3c 795e 043e a65d 4e3b d551 44bc
0.0010186625 -0.107713185 -0.17664547 0.13246405 -0.008052818 -0.06950179 0.076472506 0.042705152
-0.048004553 0.07696348 0.05411807 0.049732827 -0.14254732 -0.08221027 -0.0448022 0.04348338
0.10163549 -0.013560682 -0.07664246 -0.023766225 0.039950427 -0.022099445 -0.059002843 -0.009015133
-0.054489877 -0.024055514 -0.18901278 0.15430462 0.052773215 0.13015294 -0.010519256 0.08210484
0.102044486 -0.11652819 -0.10703507 -0.0001736623 -0.02300128 -0.06525557 0.045023806 -0.019636033
-0.0043707667 -0.114587806 -0.14896408 -0.16782355 -0.14997302 -0.0080785835 -0.059156198 -0.16105406
0.08764407 0.0029106315 0.13742623 0.080570914 0.0782823 0.09584377 -0.16952564 -0.1492007
0.00020825809 -0.082227886 -0.05582937 -0.04812135 -0.13400578 -0.11263074 -0.06562811 0.12446329
0.1576091 0.17282271 0.05017688 -0.01918499 0.014872178 -0.014147923 -0.004993453 -0.017764334
-0.0043234676 -0.11267687 -0.047557414 0.079796806 -0.09483779 0.013924233 -0.001200319 -0.08287719
0.038305018 0.06760576 0.04622466 0.13699658 0.044685014 -0.08713234 0.032213125 0.04442503
-0.06633002 -0.02786852 -0.03512667 -0.09160236 -0.015952397 -0.01915048 -0.12250453 -0.040143896
-0.002460873 -0.17685886 -0.1498793 0.13896437 0.15281081 0.062587276 0.09206564 -0.11090865
0.033983063 -0.043131214 0.024791265 0.0409134 0.041929554 0.07136655 0.047139883 -0.10734059
-0.2838522 0.041804742 0.021415941 -0.24602416 -0.18918107 -0.009902829 0.13517094 -0.033704054
0.12501149 0.13518028 0.14605811 0.17668454 0.09114389 -0.0023069405 0.06253529 0.11187945
-0.042390097 0.032243356 0.022919513 -0.14657882 0.0032741902 0.038605116 -0.09666475 -0.0069168885
0.0045043374 -0.05864336 -0.017195396 0.17371124 0.14349927 0.0026043996 0.061457373 0.05512494
-0.057479896 -0.046949465 -0.06199671 -0.01301766 -0.13564382 -0.09299638 -0.115860336 -0.14061764
-0.1394645 -0.09695062 -0.025860922 0.064866595 -0.058651567 -0.058142975 0.24182108 0.03634443
-0.01884702 0.055487715 -0.0029014838 0.027233439 -0.020654405 -0.024783606 -0.04743056 -0.15201437
0.050523132 0.09667368 -0.04553359 -0.062564604 0.1008829 0.06719775 -0.18919203 -0.06118791
-0.07563448 -0.072761394 -0.09874876 -0.06887626 0.074538454 0.05695703 -0.005802047 0.046484068
0.09523583 0.109373994 -0.19746995 -0.10131041 -0.10935311 0.034841664 -0.09059605 -0.01923945
0.0053024525 -0.12179248 -0.029957198 -0.07290191 -0.13249825 0.029691845 0.05904501 0.21802832
0.0911764 -0.012635487 0.06155599 0.061612368 0.119467124 -0.0427577 -0.075518765 -0.1822841
-0.14589943 -0.07241732 -0.115293965 -0.048543014 -0.070197895 -0.116067275 -0.04362416 -0.0032661103
0.030897124 -0.046180084 0.02998334 -0.001333981 0.038050547 -0.0740754 0.06824198 0.123374976
-0.018427107 -0.17602876 -0.16293652 -0.183405 -0.12967983 -0.061472364 -0.1425961 -0.07293605
-0.14440615 -0.059569977 -0.16625229 -0.14186466 0.029685697 -0.050955705 -0.021503698 0.03482979
-0.055132236 -0.06801085 -0.11115275 0.12846804 0.0055342377 0.09301102 -0.052145228 -0.043213096
0.02871899 0.121445715 0.008654825 0.053566474 0.020900082 0.12926663 0.0031488924 -0.011982401

conv13.bias f4 [128]
00000000: 70e8 8d3b d70a 8d3c 1984 d039 704e a63b
00000010: 7b89 bdbc ec70 7b3c 375f 5c3c feb7 2a3b
00000020: 19d6 c93c 513c c7bc a14c 49bb 8641 26bc
00000030: eb6c c6bb 2e4b 223c 69ae 903b 2baf 573c
00000040: aec7 c1bc c834 c1bc bef5 0e3c 25aa c73c
00000050: 2731 fcbb d75d c03c 6c3d ca3c fbba 2cbc
00000060: 6306 0c3c 1903 8dbc 608f 1b39 50ce 80bb
00000070: 8952 b03c 7ef4 89bb b459 bb3c d9bd 8e3a
00000080: b4ca 4bbc f874 033b 1b0c d0ba 6511 91bc
00000090: 2661 92bc 37dc 6a3c a605 61bc dec3 8dbc
000000a0: 7ee6 16bc 4af9 bd3a f5bf 3c3c bc6c 913c
000000b0: 9e11 41ba 4beb ad3c 9ddc c83c 7ba1 97bc
000000c0: c7ed 85ba 890e cc3b 7e42 adbc e72b aebc
000000d0: cf39 cc3b 5d34 36bc e785 c13c ce6d 213c
000000e0: a5a1 02bc 6238 55bc aabb 7abc ac6e babc
000000f0: 0b9d 55bc 5c97 dd3b 5bad 433c 97c8 aabc
00000100: 3994 0ebb 385a 48bb 1f27 4b3c 946c 9dbc
00000110: f261 bf3c b639 81bb 4726 f2bb 979d 313c
00000120: eb3d 19bb b263 84bc fe87 4cba 5790 93bb
00000130: 8143 a33c 1c1c 10bc 13dc 9cbc a967 c0bc
00000140: 0cf1 f0ba b748 c9bc 0a87 8c3c 5abf 273b
00000150: 2488 fd3b ce54 833a 9fd2 aebb dfff b43c
00000160: 8fb2 793c d1ac a43c def0 9ebc 873a cb3b
00000170: 2cbd c8bc 60b3 d3bb a673 a1bb 58c4 8cbc
00000180: 31b7 ba3c 1138 3fbc 9f63 4bbb 4241 14bc
00000190: 0110 ac3c da38 bb3c 3b08 ccbc 4eef 08bc
000001a0: ea56 68bc 6f9d a83b 4293 5d3c 5700 0cbc
000001b0: 5103 a6bc 7342 5bbc f5c3 d4bb 37f9 a0bc
000001c0: 750e 90bb 5c77 a8bc ffb7 f03a 9e53 b33c
000001d0: 4a48 853c b238 843b 9c46 153c 4dab 933c
000001e0: d65f 18bc 83cd c2bc d7ab 2abc 1184 1dbb
000001f0: 466c 523b 925c 953c bf2a 4d3c 4172 3a3b
0.004330687 0.017217083 0.00039771272 0.0050752684 -0.023136845 0.015346747 0.013450435 0.002604961
0.024638223 -0.024320753 -0.003071584 -0.010147458 -0.0060554645 0.00990562 0.0044153226 0.013164322
-0.023654785 -0.023584738 0.008725582 0.024373123 -0.007696289 0.023482246 0.024687491 -0.0105426265
0.008546445 -0.017213391 0.00014835363 -0.0039308444 0.02152373 -0.004210054 0.022869922 0.0010890319
-0.012438465 0.0020058732 -0.0015872748 -0.01770849 -0.01786859 0.01433473 -0.013734257 -0.01730531
-0.009210227 0.001449385 0.0115203755 0.017752044 -0.0007364991 0.02123036 0.02451926 -0.018509617
-0.0010217958 0.0062273187 -0.02114987 -0.021261169 0.0062324773 -0.011120883 0.02362342 0.00985284
-0.007973109 -0.013013931 -0.015303532 -0.02275785 -0.01303793 0.006762428 0.011943187 -0.020847602
-0.0021755828 -0.0030571353 0.012399464 -0.019216813 0.023362134 -0.0039436473 -0.007389817 0.010840795
-0.0023382853 -0.01616082 -0.0007802247 -0.0045032906 0.01992965 -0.008795764 -0.019147908 -0.023486929
-0.0018382384 -0.024570806 0.017154235 0.0025596232 0.0077371765 0.0010019781 -0.0053351666 0.022094665
0.015240326 0.020101937 -0.019401964 0.0062020454 -0.024504267 -0.006460592 -0.0049271164 -0.017183468
0.02279243 -0.011671082 -0.003103472 -0.009048762 0.021003725 0.022854257 -0.024906268 -0.008357836
-0.014180878 0.0051457207 0.0135238785 -0.008545003 -0.020265253 -0.013382542 -0.0064930865 -0.019650085
-0.0043962547 -0.020564727 0.0018365382 0.021890458 0.016269822 0.004035079 0.009111073 0.018026019
-0.009300193 -0.023779636 -0.010416946 -0.0024035017 0.0032107993 0.018232618 0.0125223985 0.0028449448

bn14.weight f4 [128]
00000000: 2551 e23f d24f d73f 3ec6 cb3f cd70 d03f
00000010: 37d5 de3f 1024 d33f b91b eb3f 436b d83f
00000020: c872 cc3f 31e2 b63f c2dc e73f 10b1 d03f
00000030: 2628 c43f aeda d13f 63a6 ad3f adb5 d43f
00000040: b759 d23f 31aa d43f cd50 bf3f 4213 cf3f
00000050: 36e2 cc3f 0dd4 f33f 08c2 c33f eee6 ce3f
00000060: 4d02 bf3f 09ff d33f c660 d33f ec95 da3f
00000070: 29a6 df3f 301c f83f 771c e93f 5105 df3f
00000080: e6d9 dc3f ffb6 bf3f eace dd3f dc07 de3f
00000090: d719 e83f 3427 f33f 26aa dc3f c9e0 0740
000000a0: ce7c d63f 9375 e73f 6fb6 c43f 0002 bc3f
000000b0: c2c4 c13f af93 b83f 96b3 c83f 47dd f73f
000000c0: 2249 c43f c875 e13f c0ee b73f e6db f73f
000000d0: bc6b e63f 13a7 c83f 0c4b c83f ad5e d83f
000000e0: 0800 c33f bace 0040 2178 d53f 26e8 de3f
000000f0: 4146 1640 0306 be3f 89d4 0040 30b3 d53f
00000100: 5291 d53f 9128 b33f 5cba cd3f 8753 ea3f
00000110: 4151 d33f 8b18 bd3f 8f68 cd3f b98c ed3f
00000120: 0608 d93f b232 dd3f 8bba f53f 9f11 e53f
00000130: 2d3e d33f 2483 a23f 400d c73f 16ff d53f
00000140: 0649 de3f c9cb dc3f fe82 cd3f 3915 da3f
00000150: bd54 d63f dfb2 bb3f 01ba cb3f 095e d23f
00000160: b594 cc3f 5e52 fe3f 8659 c33f 03ee df3f
00000170: 1f0a c73f dc4e f53f ae6a d23f 990e e13f
00000180: cad1 f83f da7e ca3f 5a57 cd3f ec69 c43f
00000190: 830c c43f fe17 c13f 6d47 c03f 50dc bf3f
000001a0: cf92 f23f 96e3 c23f 0531 f33f 5242 ae3f
000001b0: f8f1 d73f 5638 ec3f 9d03 e53f 6a27 ea3f
000001c0: 955e b73f 3b4d c83f d9b1 e73f 4fc2 ae3f
000001d0: 52d5 b83f b02e 0240 e29a c03f e78f f73f
000001e0: d4ca e63f d5c6 9e3f ef92 b63f 07ae ca3f
000001f0: 584d bb3f 989f dc3f 88b0 dd3f 2f9e bc3f
1.7681013 1.6821234 1.5919874 1.6284424 1.7408818 1.649538 1.8367835 1.6907734
1.5972528 1.4287778 1.8114245 1.6304035 1.5324752 1.6394861 1.3566402 1.6617943
1.6433629 1.6614438 1.4946533 1.6177752 1.6006534 1.9049088 1.5293589 1.6164224
1.4922577 1.6562206 1.6513908 1.7077003 1.7472583 1.9383602 1.8211812 1.7423497
1.7253997 1.4977721 1.732877 1.7346148 1.8132886 1.8996339 1.7239425 2.1230948
1.6756837 1.8082756 1.5368174 1.468811 1.5138171 1.442007 1.5679805 1.9364403
1.5334818 1.7614069 1.4369736 1.9363983 1.8001628 1.5675987 1.5647902 1.6903893
1.5234385 2.0126176 1.6677285 1.7414596 2.348038 1.4845585 2.012972 1.6695309
1.6684973 1.3996755 1.6072497 1.830674 1.6509172 1.4773115 1.6047534 1.855857
1.6955574 1.7281096 1.9197553 1.7896003 1.650335 1.2696271 1.5550919 1.6718471
1.7366035 1.724969 1.6055601 1.7037727 1.674461 1.4663962 1.5916139 1.6434947
1.5982882 1.9868886 1.5261695 1.749451 1.5549964 1.9164691 1.6438806 1.758258
1.9439023 1.5819962 1.6042283 1.5344825 1.5316318 1.5085447 1.5021797 1.4989109
1.8951052 1.5225704 1.8999335 1.3613989 1.6870718 1.8454692 1.7891728 1.8293278
1.4325739 1.5648569 1.810115 1.3653048 1.44401 2.0340996 1.5047266 1.934079
1.8030648 1.2404429 1.426359 1.5834359 1.4632978 1.7236204 1.7319498 1.4735774

bn14.bias f4 [128]
00000000: 7218 4fbf 35f0 30bf b217 2abf 655a 12bf
00000010: 0485 5ebf 916f ebbe 924a 6cbf aab5 22bf
00000020: e420 68bf 28ce 04bf 9b81 15bf b8d0 5cbf
00000030: 6fc2 23bf 4f4e 3ebf fd4b 21bf f4e5 21bf
00000040: 58ca 63bf 19dc 19bf f6d5 18bf 4560 1bbf
00000050: 129c 09bf 9acf 2abf 09e8 21bf ce7b 40bf
00000060: 0db2 27bf 8967 30bf bd23 07bf 4047 2dbf
00000070: 0fdf 33bf 2d25 64bf 0714 17bf 2e21 1cbf
00000080: 0b0a 4cbf d800 57bf dfb4 11bf c01c 34bf
00000090: 5599 4abf cdc0 42bf ae18 37bf 26c1 1ebf
000000a0: faa8 1abf 5214 31bf 39ba 33bf b901 fbbe
000000b0: fb11 2abf ba46 09bf 472b 29bf a9c5 19bf
000000c0: ac57 38bf 147d 3abf 8443 2abf bb8d 1bbf
000000d0: b48f 6abf 80bd 40bf b881 24bf b6bd 53bf
000000e0: 9b68 23bf 8506 3fbf 211f 0fbf 4112 78bf
000000f0: 88ed 97bf e7ad 0bbf 747c 70bf 735b 3cbf
00000100: 7ad7 19bf 1b70 1dbf 88df 42bf 11da 29bf
00000110: 9daf 51bf eb62 19bf ba15 64bf 7e3b 23bf
00000120: d475 09bf 62bd 5fbf cbd1 3bbf 3549 d4be
00000130: cdb6 61bf 3e9c e3be 3590 36bf 0c6b f8be
00000140: 6c05 3fbf e940 2bbf 8e8c 5bbf be7a 0bbf
00000150: 8518 44bf 0624 04bf 86e9 07bf c49a 6fbf
00000160: 5c70 62bf 2e26 29bf aadf f5be 64e8 20bf
00000170: f77f 2cbf c09f 45bf c83a 2cbf 876a 52bf
00000180: 34a0 65bf 46a4 3cbf 52d6 1fbf e169 31bf
00000190: 51e5 27bf 51b3 eebe 9164 1dbf 5f71 edbe
000001a0: 7127 32bf d837 10bf 3fc1 50bf 4b76 22bf
000001b0: 10bd 2abf 3465 45bf 3e20 84bf f11e 49bf
000001c0: 9523 18bf 0eed 3ebf fe0a 84bf 3a76 1fbf
000001d0: 5ce9 0abf b95c 98bf 959d 49bf bff6 56bf
000001e0: 2b0a 71bf 64fd 14bf 1d25 1abf 8357 19bf
000001f0: eedd 2fbf e9e1 66bf 356e 2ebf ea75 54bf
-0.80896676 -0.69116527 -0.66442406 -0.5716918 -0.86921716 -0.45983556 -0.92301285 -0.6355845
-0.9067519 -0.5187707 -0.5840089 -0.8625598 -0.6396856 -0.7433824 -0.63006574 -0.63241506
-0.8898063 -0.6010147 -0.5970148 -0.6069377 -0.5375377 -0.66723025 -0.6324468 -0.7518891
-0.6550606 -0.6890798 -0.5278891 -0.67686844 -0.70262235 -0.89119226 -0.59014934 -0.6098813
-0.79702824 -0.8398566 -0.5691661 -0.7035637 -0.79140216 -0.7607544 -0.71522033 -0.6201347
-0.6041409 -0.6917163 -0.7020603 -0.49024752 -0.66433686 -0.53623545 -0.6608166 -0.6006723
-0.72008777 -0.72847104 -0.6650927 -0.6076314 -0.91625524 -0.75289154 -0.64260435 -0.8271135
-0.6383149 -0.74619323 -0.55906874 -0.96902853 -1.1869364 -0.5456223 -0.939399 -0.7357704
-0.60094416 -0.61499184 -0.7612233 -0.6634837 -0.8190859 -0.5991656 -0.8909565 -0.6376265
-0.53695416 -0.8739835 -0.73366994 -0.41462103 -0.88169557 -0.4445514 -0.7131379 -0.4851917
-0.7461765 -0.6689592 -0.85761344 -0.54484165 -0.76599914 -0.5161747 -0.53090703 -0.9359553
-0.88452697 -0.6607388 -0.48022205 -0.628546 -0.6738276 -0.77196884 -0.67277193 -0.821938
-0.89697576 -0.7368816 -0.624364 -0.69302183 -0.65584284 -0.46621183 -0.6148158 -0.46375558
-0.6959143 -0.5633521 -0.8154487 -0.6346175 -0.66694736 -0.7710755 -1.032234 -0.7856284
-0.59429294 -0.74580467 -1.0315855 -0.62289774 -0.5426233 -1.1903297 -0.78756076 -0.83970255
-0.9415614 -0.58199143 -0.6021288 -0.5989916 -0.6869801 -0.9018846 -0.6813691 -0.8299242

bn14.running_mean f4 [128]
00000000: 399b 26bf 9db5 29bf 9e5d 4dbf 093d b3be
00000010: fd52 4dbf 3708 97be 1b48 fcbe 5fea e0be
00000020: 85dd dfbe f371 19bf c2c9 0cbe 1fe1 e2be
00000030: 3526 59bf fb2c 11bf 1eee 993e 1c6a 0dbf
00000040: a89f 5abf 7ecb 82bf 80ab 4cbf fa39 3ebf
00000050: ab68 283e daca 7abf f645 0bbf a014 70bf
00000060: a2be 0cbf 2d66 1fbf 294b 10bf b703 a0bd
00000070: 88b9 4dbf 73d4 4dbe fa0b 693e 2e71 32bf
00000080: 7504 c4be 8cc2 0e3e 9a0c ef3e 14a1 68be
00000090: 4247 24be 82a6 06bf 6697 cdbe f7ad 2cbf
000000a0: 8723 4ebf 92a2 9dbf 06b5 363e 5ede da3c
000000b0: 3cbf cbbe 1fa7 263c 0ccb d7be a14e 06bf
000000c0: 0da4 59be de2b 7abe 1c3a dc3d 919c 11bf
000000d0: 327a 12bf db1f 02bf 00af e8be 0ce5 05bf
000000e0: f1a0 ffbe 2e11 0abf d740 3dbf c233 28bf
000000f0: ebe7 23be 87fa 8cbf 00d4 2dbe 38a7 1fbf
00000100: db3d 813e 3630 fcbd 0f89 07be 8040 25be
00000110: b00d 37bf 05de 8fbe e461 38bf c00c 13bf
00000120: 6152 74be bd8d 39bf 2ac2 27bf a24b ccbf
00000130: 8ab8 f5be a9ee 82be 8686 edbe c515 18bf
00000140: 2057 91be 2283 febe 1336 38bf baf1 41be
00000150: fbcc 84bf d3a8 eebe efd1 85bf 7665 6c3e
00000160: 4055 67be e181 d6be 21b5 b4be cc63 33bf
00000170: 8945 c8be 1452 5ebf acb4 7cbf 8657 30be
00000180: 9f16 8cbf 1089 10be 5127 eebe c1f6 03be
00000190: 265c 03bf 4314 89be b922 b3be 6082 81bf
000001a0: 6bcf 6abe a9c2 8bbe 79a1 8d3e 62a3 6c3e
000001b0: 64ac 6ebf d81d b5bf acec 2dbe 6c00 bbbe
000001c0: 3fca 87bd 372c 80be f9db 0cbf 1a10 43bf
000001d0: 6bcc 1abf cf3a 35bf b616 b4bd 4f04 e5be
000001e0: cb1a 74be 209d 4cbe 0721 90be 86a0 2fbe
000001f0: 9643 293f 04ca 933e 0b50 7fbe aa4a 7abe
-0.650806 -0.66292745 -0.80220973 -0.35007504 -0.80204755 -0.29498455 -0.49273762 -0.4392881
-0.43723693 -0.599395 -0.1374884 -0.4431238 -0.84823924 -0.5670926 0.30064481 -0.55240035
-0.85399866 -1.0218351 -0.7994919 -0.74307215 0.16446178 -0.97965777 -0.54403627 -0.9378147
-0.5497838 -0.6226528 -0.56364685 -0.078132086 -0.80361223 -0.20100574 0.22758475 -0.6970395
-0.3828465 0.13941401 0.46689302 -0.22717696 -0.16042808 -0.5259782 -0.4015457 -0.6745295
-0.8052296 -1.2315238 0.17842492 0.026717361 -0.39794338 0.010171681 -0.421471 -0.5246373
-0.21253987 -0.24430797 0.10753271 -0.56879526 -0.57217705 -0.5082986 -0.45446014 -0.5230262
-0.49927476 -0.53932464 -0.7392706 -0.65703976 -0.16006438 -1.1013955 -0.16975403 -0.6236453
0.25242504 -0.12313883 -0.13235877 -0.16137886 -0.7150526 -0.28099075 -0.7202437 -0.5744133
-0.2385955 -0.724819 -0.65530646 -1.5960581 -0.47992355 -0.25572708 -0.46391696 -0.5940822
-0.28386784 -0.4970942 -0.7195751 -0.18939868 -1.0375055 -0.46613178 -1.0454692 0.2308558
-0.22591114 -0.41895965 -0.3529444 -0.7007415 -0.3911555 -0.8684399 -0.98713183 -0.17220888
-1.0944403 -0.14114785 -0.4651437 -0.12887098 -0.5131248 -0.2677327 -0.3498743 -1.0117912
-0.22930686 -0.2729695 0.27662256 0.231092 -0.932318 -1.4149733 -0.16984814 -0.3652376
-0.06630372 -0.25033733 -0.5502315 -0.76196444 -0.6046817 -0.7079286 -0.08793394 -0.4472985
-0.23838346 -0.19981813 -0.28150198 -0.17151079 0.6611875 0.28865063 -0.24932878 -0.24442545
